models/AttnFuseNet_binary.pt (torch, 740493 bytes, 32 tensors)

aggregator.fc_in.weight f4 [128, 107]
00000000: 580f 373d c640 b93d 58b4 c63b c81d a73d
00000010: 1830 093e 3a62 5bbb cf56 75bb 5312 1e3e
00000020: 5e20 aabc 8a00 ae3d 3e18 c93d 8f19 e43d
00000030: a4c5 acbb a808 73bb 5b16 873e c551 b73e
00000040: 661d 983d a2be ec3d 71c9 343e 25fb 143d
00000050: 0949 c53e d21c 5c3e d8f5 913e f596 e23e
00000060: e6c8 b23e 6781 9e3e 2cef 833e cb22 013f
00000070: 261f 173d cc2a a4bd 89d4 b93d 57da ac3e
00000080: 1135 ad3e 2d48 a63e 3e37 e8bd f83a 4a3e
00000090: cb26 ac3e c1c8 d7bc 3334 bb3d b4d3 943d
000000a0: 2905 493e f7b0 cb3d fe16 853d ede9 cd3d
000000b0: f7dd b43d 7222 89bd b003 eb3c 0282 cc3c
000000c0: a976 383e d2cf c2bd 90dd a93c d79f 8dbd
000000d0: 46d5 9ebd 4d52 4b3e b873 0abd 9688 913e
000000e0: 9d60 5c3d 214b 013d e5fe 9c3e 3c43 8a3e
000000f0: 7605 98bd 33fb dd3e a616 093d 56f8 573c
00000100: 21e5 083d 925b bc3d 5cd5 e9bb 8eda 6bbd
00000110: 70ff 3dbd 5431 89bc 7fdc cb3e 9c4c bf3d
00000120: cf4f 6bbd 8133 a23d 0223 2e3e 52a6 cf3e
00000130: 7b8d 10be 591c 883d 7867 853c 9917 abbd
00000140: 4110 cc3d 1de9 4abd 53dc b63d c02f cc3e
00000150: 40c9 06bd 0480 153e c209 633c c76d 85bd
00000160: 535d 6b3d 87d7 8d3d 6d52 9fbd c538 febc
00000170: 117e c03d d14e 983e f659 8f3e db49 b23d
00000180: 039a d83e 799b e1bc 6edf a93d b264 a33d
00000190: 0ef1 503e 4ca1 78bd 17bc 1abd a9cd 28bd
000001a0: 674b 8b3e 68af 06bc 9a50 883e f117 323d
000001b0: 5894 b23d 1339 34bd cfca 5bbe f289 4abe
000001c0: 8704 f5bd 921d d7bd c412 39bd 5803 86bd
000001d0: 8e3f 0abe a19a b1bd bce1 1abe 2766 ccba
000001e0: bf22 4abc e45c a1be 8a3a cfbe 08bc f83c
000001f0: 31e5 dcbd a9e9 aabe a46d 05be 2d1e e4be
00000200: d05b 41be f8b6 f2be b5ec a7be adea 9bbe
00000210: 9646 dbbe ead0 74be 061b e0be 2b35 1c3d
00000220: 7819 ad3d fe53 93bd d3bb c0be 8dd5 90be
00000230: 8e3b abbe 6aa3 463e ff64 bfbe 41c0 40be
00000240: b54d 2abd e820 a73b 5090 cfbd db57 2abe
00000250: d3b2 95ba 2cd7 ee3c 0144 b0bd 5e91 743d
00000260: 9704 9f3d 3020 26bd b89f 6b3c bbdf 07be
00000270: 4635 1dbc f548 f6bd 505d bdbd cb26 f7bc
00000280: c328 9cbe 8654 0c3c 3bc6 35be 8782 173c
00000290: a9cb 0d3d 0a2a 67be 0202 9dbe 1b05 24bd
000002a0: feea e2be c2ed 213d 45a1 a83d 5a44 adbd
000002b0: 90ef e1bd 9f45 75bd 374a ad3c a2f8 f1bc
000002c0: 0663 e6bd 9836 c2be 0084 813d 8401 fbbd
000002d0: 756e c03d 1aff 81be 4aee b3be 1bec 803d
000002e0: 20b2 5a3e 89b3 7ebd 8679 9ebd 19cc 62be
000002f0: 8de0 ccba 1b55 91bb b136 72be be0c a2bd
00000300: d397 e83b f082 a23c 488c a8bb 90fd b8bd
00000310: cef8 8ebd 3283 44bc cff2 8ebd 133c 0ebc
00000320: ad3c 6abe 70bb b4be ce9e edbd 627b b7be
00000330: aad4 043d 40cb 1c3d 51b5 c83c ace0 66be
00000340: 2269 773d aa0a 843d 2ec4 dbbc c842 8bbe
00000350: deae 4b3d 2996 a5be 8857 bdbd 0b6c 79bd
00000360: b210 d9bc b4fc d3bd 0c89 32be a571 2fbd
00000370: adad 30be 5533 4abe 5f5f 243e 1f55 cabb
00000380: 1842 c1bc 47b1 47be c9dc 75bd 6ded f33d
00000390: fc09 e5be 44ef aebe 1e9b b23d ccf7 2abc
000003a0: 17c6 94be 5676 c8bd 96f4 debe 96b0 44be
000003b0: 51ac f5be 62ce e7be d001 a6be 6339 f0be
000003c0: 9c31 81be a0b4 e6be be52 7abd 18b4 efbc
000003d0: aed2 053c fc8c 85be 8420 e6be 6c9f c1be
000003e0: 1689 6d3e 0587 b3be ca13 61be 50e7 d23c
000003f0: 57b7 bfbd 63aa 04bc c91d 7abe 595f 913d
0.044692367 0.09045558 0.006063979 0.08159977 0.13397253 -0.0033475296 -0.0037435775 0.15436678
-0.020767387 0.084961966 0.09819077 0.111376874 -0.005272584 -0.0037084017 0.26384243 0.35804573
0.07427482 0.11559798 0.17654969 0.036372323 0.38532284 0.21495369 0.28507876 0.44255796
0.34918898 0.309581 0.2576841 0.50443715 0.03689494 -0.08015975 0.09073741 0.3376033
0.3382955 0.3247694 -0.113386616 0.19749057 0.33623347 -0.026340844 0.091408156 0.07266942
0.19630875 0.09945863 0.06498526 0.100543834 0.08831399 -0.06696023 0.028688282 0.024964336
0.18014015 -0.09512295 0.020735532 -0.06915253 -0.077555224 0.19855614 -0.033801764 0.2842452
0.053803075 0.03156579 0.3066322 0.2700442 -0.074229166 0.43355712 0.033468865 0.0131817665
0.03342164 0.09197153 -0.00713603 -0.057581477 -0.046386182 -0.016747154 0.39816663 0.09340784
-0.05744916 0.0791998 0.17005542 0.4055658 -0.1411647 0.06646032 0.01628469 -0.0835411
0.09964038 -0.04953872 0.08928742 0.3988018 -0.03290677 0.14599615 0.013857307 -0.06515079
0.057462048 0.06925874 -0.07779393 -0.03103293 0.09399045 0.29747632 0.27998322 0.08705493
0.42305002 -0.027539955 0.08294569 0.079781905 0.20404455 -0.0607007 -0.037777033 -0.041211758
0.27205965 -0.008220531 0.26623994 0.043479864 0.087197006 -0.043999743 -0.21464084 -0.19779184
-0.11963754 -0.10503687 -0.045183912 -0.065436065 -0.13500807 -0.08672071 -0.15125173 -0.0015594409
-0.012337386 -0.31516182 -0.4047435 0.030363098 -0.10785902 -0.33381394 -0.13030106 -0.44554272
-0.1888268 -0.4740522 -0.3279778 -0.3045248 -0.4282729 -0.2390782 -0.43770617 0.038136642
0.084521234 -0.071937546 -0.37643299 -0.28287926 -0.33443874 0.19398275 -0.3738174 -0.18823339
-0.041578013 0.0051003583 -0.10134947 -0.16635077 -0.0011421092 0.029155336 -0.08606721 0.059708945
0.07764547 -0.04055804 0.014381342 -0.1326894 -0.009595221 -0.12025634 -0.092463136 -0.030169865
-0.3049985 0.008565074 -0.177514 0.009247429 0.034618054 -0.2257463 -0.30665594 -0.04004393
-0.4431991 0.039533384 0.08233885 -0.08460303 -0.11032021 -0.05988085 0.021153552 -0.029537503
-0.11249356 -0.37932277 0.06324005 -0.122561485 0.09396068 -0.2538994 -0.35142738 0.062950335
0.21357012 -0.062182937 -0.077380225 -0.2214817 -0.0015630886 -0.004435194 -0.23653676 -0.07912587
0.007098177 0.019837826 -0.005143676 -0.09032738 -0.069810495 -0.01199417 -0.06979906 -0.008681315
-0.22874708 -0.35299253 -0.11602555 -0.3583632 0.032429375 0.03827977 0.02450052 -0.22546643
0.060402997 0.064473465 -0.026826944 -0.27199388 0.049727313 -0.32341126 -0.09245211 -0.060894053
-0.026497219 -0.10350934 -0.17435092 -0.04283299 -0.17253752 -0.19746144 0.16052006 -0.006174698
-0.023591086 -0.1950122 -0.06002501 0.1191052 -0.4473418 -0.3416692 0.087209925 -0.010435056
-0.2905738 -0.09788196 -0.4354598 -0.19207987 -0.4798303 -0.45274645 -0.32423258 -0.46918783
-0.2523316 -0.4505968 -0.061114065 -0.02926068 0.008167906 -0.26084125 -0.44946682 -0.37816942
0.23196825 -0.3506395 -0.21980205 0.025745064 -0.09361141 -0.008097264 -0.24425425 0.07098264

aggregator.fc_in.bias f4 [128]
00000000: 1e0e 123d 50f6 06bc 5ee0 723d 05d5 58bd
00000010: a17f 793d 15cf 4b3c 6ab8 01bd 251b 3e3b
00000020: 1fb2 84bd 03af 19bd b349 71bd 66d1 cdbd
00000030: dca2 2e3d ed2a 533d 0e3f e43b d1c8 e0bc
00000040: 7bf6 84bd 7b93 a3bc e432 293c 72cc 65bd
00000050: 7ff5 8738 d2e0 9bbd ff9b 49bb e1c8 cabc
00000060: e03f aebd 1ecd aebc 036c 90bd 2be3 bb3c
00000070: 9cc5 c3bd 02e7 063d 8fa5 9c3d 5407 8ebd
00000080: 245a 263d f994 ed3c d15a b0bd 7584 463d
00000090: 21ef 2ebd ad30 933b 92e0 cabd 25b1 d0bd
000000a0: bbd2 be3d b72b 99bd 9a60 9dbd a408 42bd
000000b0: 5d36 1f3d 9e00 81bd 3afa 4abd 8f98 eabb
000000c0: 666a 4fbd f191 42bc b1f6 ea3b 5b8d 6ebd
000000d0: fa04 863b 39dd 053d 7e10 1c3c d403 823d
000000e0: dd27 abbd 3750 253d 1ac1 4abd a970 dc3d
000000f0: 6a1c 7abd fc68 5e3d c7dc 8bbd 1d5f 4f3d
00000100: f3ed cd3c c7d3 a03d 6115 fc3b 8345 423d
00000110: 3ad7 a03c 0672 8bbd 9897 2cbd 7d05 dc3d
00000120: 284b 273d 7551 01ba 8f25 1dbd a5d1 b9bc
00000130: 9367 22bd 71c1 cc3c 6f3c 33bd b30f 74bc
00000140: 1d76 0dbd e392 c63d 3e26 92bd 04b9 0d3d
00000150: ab18 dbbd 6745 93bd 5c9a 63bd 060f c6bc
00000160: 4446 7fbd 999b 50bd b6e8 0abd 959e 1a3d
00000170: 9609 483d 0f8d 633c 6126 bbbc a3fa 5cbd
00000180: 3c0b bf3c 0389 52bd d4f7 823d 1e93 2cbd
00000190: 4489 073d ce6e 5abd e0a2 12bd 230d 213c
000001a0: bce3 933d 2f09 82bd abe7 b6bc 7183 30bd
000001b0: 2c9a bbbc b15f 443d e9c9 ef3c 3e00 833d
000001c0: fa2c 813d 1917 30bd 5e60 7ebd a21e a4bd
000001d0: 8341 0fbd 5f2b 8a39 34a6 27bd c888 713d
000001e0: 0633 5e3b 06eb 12bc cc60 27bd d63f 733c
000001f0: ff84 89bd a183 ab3d f99d 3b3d 1f9b 94bd
0.035657994 -0.008237436 0.059296004 -0.052937526 0.060912732 0.012439509 -0.03167001 0.0029007879
-0.064792864 -0.03752042 -0.058908176 -0.10049705 0.042635784 0.05155461 0.0069655245 -0.027439507
-0.06492325 -0.019967785 0.010327075 -0.056103177 6.483029e-05 -0.076112404 -0.0030763147 -0.02475399
-0.08508277 -0.021338042 -0.070518516 0.02293547 -0.09559175 0.03293515 0.07648765 -0.069349915
0.04061331 0.0290017 -0.08611072 0.048466165 -0.04270852 0.0044918866 -0.09906115 -0.10190038
0.093175374 -0.07479041 -0.07684441 -0.04737152 0.038870204 -0.06298946 -0.04955504 -0.0071592997
-0.05063858 -0.011875615 0.007170521 -0.058240276 0.0040899487 0.032681677 0.009525416 0.063483864
-0.08357213 0.040359702 -0.049500562 0.10763676 -0.061062254 0.05429934 -0.06829219 0.050627816
0.025137877 0.07852893 0.0076929783 0.047429573 0.019633878 -0.068088576 -0.04213676 0.10743234
0.04084316 -0.00049330975 -0.038365897 -0.022682974 -0.039649557 0.024994584 -0.043758806 -0.014896321
-0.03453647 0.09695985 -0.071362 0.034600273 -0.106980644 -0.07190972 -0.05556713 -0.024177086
-0.06232287 -0.05092964 -0.033913337 0.03774889 0.048837267 0.013888611 -0.022845449 -0.053949963
0.023320787 -0.051400196 0.06394926 -0.04213249 0.03308989 -0.053328328 -0.03579986 0.009829792
0.07221171 -0.06349408 -0.022327265 -0.043094102 -0.022900663 0.04794282 0.029271083 0.063965306
0.06307407 -0.042990778 -0.06210362 -0.08013655 -0.034974586 0.00026353725 -0.040929988 0.058968335
0.0033904924 -0.008967167 -0.040863797 0.014846763 -0.0671482 0.083747156 0.04580495 -0.072561495

aggregator.mha.in_proj_weight f4 [384, 128]
00000000: 20de b13c cb58 f8bc 63be a93d 0f16 a63c
00000010: 7a0f 01bd 6bc5 89bd b783 81bd d9bb ca3c
00000020: fc4b 0dbc fb6b 9f3d bf82 793d a67f 9abd
00000030: 5bfe 143b 34d1 a9bd 9c30 cd3d 2f37 5abd
00000040: aa5e cbbd a0d8 b2bc e4a4 03bc 37b0 a43d
00000050: a6ae 2fbd 2b27 2a3d 5fbb 96bd d21c 4a3d
00000060: 5abc a43c 5b92 eebc 3c88 bfbd 7f41 a5bd
00000070: 7997 803d 1ba5 313d 5130 d2bd 8002 613d
00000080: a65c 6ebd e429 d43c 9f58 ddbd f8af 05bd
00000090: 9c37 c03d f25b d4bd 90ec 453d d155 9f3d
000000a0: 1e90 cb3d 204b 2dbc 24fb 60bd 8a5f 1f3c
000000b0: dedd 993d 0e10 c93d 01d4 17bd 645f 77bd
000000c0: ddd8 883c 4528 c73d 6a19 98bd 94e3 b23d
000000d0: 0662 913d b5ed fd3b e240 043c ce7a 313d
000000e0: e959 53bd f418 a1bd cd49 71bd e790 08bc
000000f0: 337d 9cbd d7f3 5cbd 617e b7bc 1a07 89bd
00000100: c936 c33d 2ce1 b6bd a2c0 61bd 83ab 323c
00000110: 7593 c83c 5f69 f63c e2bd d63b d856 693d
00000120: d41b 373d 48ec c13c eec2 c93d 313f 9b3d
00000130: ddbd 57bd 0b9a d73d 0ce6 813c f70c 573d
00000140: aa45 f73c 4ed8 26bd 1e2c ea3c 6d43 c2bc
00000150: 56eb a73d a976 213d f21f a03d 7aa0 29bd
00000160: fb6a 8dbd b5ac 8a3d f944 883d b0f1 a23d
00000170: 5bed 98bc 5798 523d 8ae1 41bc 1595 b9bd
00000180: e890 a53d ce10 4c3d 77cf 7bb9 aeeb 61bd
00000190: 042a 9a3d 66ef 513d 8d21 9e3d 7076 9c3d
000001a0: 6052 833d 3a76 793d 9fa2 d8bd 7226 71bd
000001b0: 812c 89bd 0183 2e3b 32e1 cabc bc39 af3c
000001c0: 85e6 343d 3e5e d63c ec08 36bd b426 b6bd
000001d0: 7118 9c3c 9d4e d63d d3db ad3d c5f4 133d
000001e0: 5818 9abd 286e 78bd 1213 ccbd 5505 2b3d
000001f0: 78d9 55bd 9aae 193d 6120 86bd 6bbb 933d
00000200: 6aad 7a3d 4d61 22bd d3d0 a4bd d819 ac3d
00000210: b287 6c3d 64fc 613d 532c f539 ac49 ca3d
00000220: 660b b43d f8c9 06bd 1fe7 d13d 15e7 993d
00000230: 16ff 943c 061f 983c 69d0 93bd 9496 fb3c
00000240: 6cc7 d73d 703c 653d 2c32 9d3d 5e14 673d
00000250: b6c1 34bd 83a2 3abc 4eb7 cbbd 8d5c 9d3d
00000260: ceb4 70bd ca05 30bc acd2 d0bd 919e 9c3c
00000270: 9117 1dbd af2a d3bd 4264 2ebc e8db 1c3d
00000280: 094d 843c 83e3 a33d 64af 1d3c e37f bdbd
00000290: e2c9 a53d 648c 1e3d 2316 a8bd 8e90 4c3a
000002a0: efc8 873c df0e c03d 9221 573d 3691 aa3d
000002b0: be5f af3d 1078 90bd 9028 c43c f89e 973d
000002c0: ebc4 223c f2b6 bf3d 72c4 be3d 7769 923d
000002d0: 0fa9 d33d d6da 8f3d 3870 1e3d 7e2b db3d
000002e0: 3e80 0abd e753 533c ae6e 1f3d cff9 14bc
000002f0: 458f b7bc f414 883b 958b a4bd cd1e 8ebd
00000300: 0f63 b3bd cddf dbbd 064e a6bb 5ab6 8cbd
00000310: 818a 8d38 232a cabc 92b8 96bd 402a d03d
00000320: b075 31bd 1a1c 903d c1a0 cabc 11d0 0abd
00000330: 3877 80bd 0e9c 533c d059 6a3d ba2a 4e3c
00000340: e8e9 a93d 8ce6 83bc 27f0 cfbd c209 0cbd
00000350: 3734 97bd d075 afbc f9eb bc3c 9197 843c
00000360: d140 d6bd 396d 863d be35 9abd 9e6b 07bd
00000370: 4d95 4ebd f1fe cb3d 8c74 acbd c41a bc3d
00000380: ac14 2dbc 5651 a0bd edbb 59bd 580a b1bd
00000390: 397d a5bd 7d72 e63c d726 bf3d 7dbd b63d
000003a0: b54d 99bd cbf6 9cbd d12d 893d cce8 d73d
000003b0: dfce a2bd 1b1c 79bc 9509 9cbd 371d 843d
000003c0: eae9 ac3d cbb8 85bc 8369 9a3d eaaa d2bd
000003d0: 26bb 7c3d 27aa 9a3d c58d 813d d6e2 9e3d
000003e0: 1c4a 51bd 8808 41bd 1e82 823d 4177 cfbc
000003f0: 123a 393d 106f ce3d 33c1 34bd 97be cc3d
0.021712363 -0.030315777 0.082882665 0.02027419 -0.0315089 -0.067271076 -0.06323951 0.024747776
-0.008624073 0.077842675 0.060915705 -0.07543878 0.0022734615 -0.082918555 0.10019037 -0.053275283
-0.09930165 -0.02183181 -0.008034918 0.08041423 -0.042891167 0.04154126 -0.07359957 0.04934389
0.020109344 -0.029122522 -0.093521565 -0.08069133 0.06278891 0.043370347 -0.10263122 0.054934025
-0.058193825 0.025898881 -0.10807919 -0.03263852 0.09385607 -0.103691 0.048321307 0.0778004
0.099395975 -0.010576993 -0.054927006 0.009727368 0.07513021 0.09817515 -0.037067417 -0.060393706
0.016704971 0.09724478 -0.07426722 0.08734813 0.070987746 0.007749284 0.00807211 0.043330006
-0.051599417 -0.078660876 -0.058908273 -0.008335329 -0.07641067 -0.05394348 -0.02239913 -0.06690808
0.09531934 -0.08929667 -0.05511535 0.010905149 0.024484375 0.030079542 0.0065533975 0.056967586
0.044704273 0.023672238 0.09851633 0.07580412 -0.052671302 0.10527428 0.015856765 0.0525026
0.030184586 -0.040733628 0.02858549 -0.023713792 0.08199184 0.039419804 0.07818593 -0.041412808
-0.069051705 0.067712225 0.066537805 0.079562545 -0.018667867 0.051414814 -0.011833558 -0.09061638
0.08084279 0.049820714 -0.00024014512 -0.055156402 0.07527545 0.0512537 0.07721243 0.07639778
0.06412196 0.060903765 -0.105778925 -0.058874555 -0.066979416 0.0026628377 -0.024765585 0.021389835
0.044165153 0.026167985 -0.044442102 -0.08894101 0.019054623 0.10464213 0.08489194 0.036122102
-0.075241745 -0.06065193 -0.09964575 0.041753132 -0.052209347 0.03752003 -0.065491445 0.072134815
0.061200537 -0.039643575 -0.080476426 0.08403367 0.057746597 0.05517234 0.00046763066 0.09877333
0.087912366 -0.032907456 0.10249161 0.075147785 0.01818804 0.01856948 -0.072174855 0.03071145
0.105360836 0.05596584 0.07675585 0.056415908 -0.04413005 -0.011391285 -0.09947072 0.07683668
-0.05876618 -0.010743568 -0.101964325 0.01911858 -0.038352553 -0.103108756 -0.0106440205 0.038295656
0.016150014 0.08002379 0.009624336 -0.09252908 0.08095147 0.038708106 -0.08207347 0.0007803523
0.016575305 0.093778364 0.05252225 0.08328478 0.08563183 -0.0705415 0.023945123 0.07403368
0.009934644 0.09361066 0.09314813 0.07149022 0.1033498 0.070241615 0.03868124 0.10701655
-0.033813708 0.012898422 0.03892391 -0.009092762 -0.022407183 0.0041528884 -0.08034436 -0.069394685
-0.08759128 -0.10736046 -0.005075219 -0.06870718 6.749202e-05 -0.024678295 -0.07359423 0.101643085
-0.043325126 0.0703661 -0.024734857 -0.033889834 -0.06272739 0.012915624 0.057214558 0.012583429
0.08296567 -0.016101144 -0.10153227 -0.034188993 -0.07383006 -0.021418482 0.02306174 0.016185554
-0.104615815 0.06563801 -0.07529782 -0.033061616 -0.050435353 0.099607356 -0.08420667 0.09184793
-0.010564011 -0.078280136 -0.053157736 -0.08644551 -0.08080525 0.028130764 0.0933358 0.08922861
-0.074855246 -0.076642595 0.06698192 0.10542449 -0.07949614 -0.015204455 -0.07619015 0.06450885
0.08443053 -0.016323468 0.07539656 -0.102865055 0.061701916 0.07551985 0.063258685 0.07758109
-0.051096067 -0.047127277 0.06372474 -0.02532542 0.045221396 0.10079777 -0.04412956 0.0999729

aggregator.mha.in_proj_bias f4 [384]
00000000: 0000 0000 0000 0000 0000 0000 0000 0000
00000010: 0000 0000 0000 0000 0000 0000 0000 0000
00000020: 0000 0000 0000 0000 0000 0000 0000 0000
00000030: 0000 0000 0000 0000 0000 0000 0000 0000
00000040: 0000 0000 0000 0000 0000 0000 0000 0000
00000050: 0000 0000 0000 0000 0000 0000 0000 0000
00000060: 0000 0000 0000 0000 0000 0000 0000 0000
00000070: 0000 0000 0000 0000 0000 0000 0000 0000
00000080: 0000 0000 0000 0000 0000 0000 0000 0000
00000090: 0000 0000 0000 0000 0000 0000 0000 0000
000000a0: 0000 0000 0000 0000 0000 0000 0000 0000
000000b0: 0000 0000 0000 0000 0000 0000 0000 0000
000000c0: 0000 0000 0000 0000 0000 0000 0000 0000
000000d0: 0000 0000 0000 0000 0000 0000 0000 0000
000000e0: 0000 0000 0000 0000 0000 0000 0000 0000
000000f0: 0000 0000 0000 0000 0000 0000 0000 0000
00000100: 0000 0000 0000 0000 0000 0000 0000 0000
00000110: 0000 0000 0000 0000 0000 0000 0000 0000
00000120: 0000 0000 0000 0000 0000 0000 0000 0000
00000130: 0000 0000 0000 0000 0000 0000 0000 0000
00000140: 0000 0000 0000 0000 0000 0000 0000 0000
00000150: 0000 0000 0000 0000 0000 0000 0000 0000
00000160: 0000 0000 0000 0000 0000 0000 0000 0000
00000170: 0000 0000 0000 0000 0000 0000 0000 0000
00000180: 0000 0000 0000 0000 0000 0000 0000 0000
00000190: 0000 0000 0000 0000 0000 0000 0000 0000
000001a0: 0000 0000 0000 0000 0000 0000 0000 0000
000001b0: 0000 0000 0000 0000 0000 0000 0000 0000
000001c0: 0000 0000 0000 0000 0000 0000 0000 0000
000001d0: 0000 0000 0000 0000 0000 0000 0000 0000
000001e0: 0000 0000 0000 0000 0000 0000 0000 0000
000001f0: 0000 0000 0000 0000 0000 0000 0000 0000
00000200: 0000 0000 0000 0000 0000 0000 0000 0000
00000210: 0000 0000 0000 0000 0000 0000 0000 0000
00000220: 0000 0000 0000 0000 0000 0000 0000 0000
00000230: 0000 0000 0000 0000 0000 0000 0000 0000
00000240: 0000 0000 0000 0000 0000 0000 0000 0000
00000250: 0000 0000 0000 0000 0000 0000 0000 0000
00000260: 0000 0000 0000 0000 0000 0000 0000 0000
00000270: 0000 0000 0000 0000 0000 0000 0000 0000
00000280: 0000 0000 0000 0000 0000 0000 0000 0000
00000290: 0000 0000 0000 0000 0000 0000 0000 0000
000002a0: 0000 0000 0000 0000 0000 0000 0000 0000
000002b0: 0000 0000 0000 0000 0000 0000 0000 0000
000002c0: 0000 0000 0000 0000 0000 0000 0000 0000
000002d0: 0000 0000 0000 0000 0000 0000 0000 0000
000002e0: 0000 0000 0000 0000 0000 0000 0000 0000
000002f0: 0000 0000 0000 0000 0000 0000 0000 0000
00000300: 0000 0000 0000 0000 0000 0000 0000 0000
00000310: 0000 0000 0000 0000 0000 0000 0000 0000
00000320: 0000 0000 0000 0000 0000 0000 0000 0000
00000330: 0000 0000 0000 0000 0000 0000 0000 0000
00000340: 0000 0000 0000 0000 0000 0000 0000 0000
00000350: 0000 0000 0000 0000 0000 0000 0000 0000
00000360: 0000 0000 0000 0000 0000 0000 0000 0000
00000370: 0000 0000 0000 0000 0000 0000 0000 0000
00000380: 0000 0000 0000 0000 0000 0000 0000 0000
00000390: 0000 0000 0000 0000 0000 0000 0000 0000
000003a0: 0000 0000 0000 0000 0000 0000 0000 0000
000003b0: 0000 0000 0000 0000 0000 0000 0000 0000
000003c0: 0000 0000 0000 0000 0000 0000 0000 0000
000003d0: 0000 0000 0000 0000 0000 0000 0000 0000
000003e0: 0000 0000 0000 0000 0000 0000 0000 0000
000003f0: 0000 0000 0000 0000 0000 0000 0000 0000
0.0 0.0 0.0 0.0 0.0 0.0 0.0 0.0
0.0 0.0 0.0 0.0 0.0 0.0 0.0 0.0
0.0 0.0 0.0 0.0 0.0 0.0 0.0 0.0
0.0 0.0 0.0 0.0 0.0 0.0 0.0 0.0
0.0 0.0 0.0 0.0 0.0 0.0 0.0 0.0
0.0 0.0 0.0 0.0 0.0 0.0 0.0 0.0
0.0 0.0 0.0 0.0 0.0 0.0 0.0 0.0
0.0 0.0 0.0 0.0 0.0 0.0 0.0 0.0
0.0 0.0 0.0 0.0 0.0 0.0 0.0 0.0
0.0 0.0 0.0 0.0 0.0 0.0 0.0 0.0
0.0 0.0 0.0 0.0 0.0 0.0 0.0 0.0
0.0 0.0 0.0 0.0 0.0 0.0 0.0 0.0
0.0 0.0 0.0 0.0 0.0 0.0 0.0 0.0
0.0 0.0 0.0 0.0 0.0 0.0 0.0 0.0
0.0 0.0 0.0 0.0 0.0 0.0 0.0 0.0
0.0 0.0 0.0 0.0 0.0 0.0 0.0 0.0
0.0 0.0 0.0 0.0 0.0 0.0 0.0 0.0
0.0 0.0 0.0 0.0 0.0 0.0 0.0 0.0
0.0 0.0 0.0 0.0 0.0 0.0 0.0 0.0
0.0 0.0 0.0 0.0 0.0 0.0 0.0 0.0
0.0 0.0 0.0 0.0 0.0 0.0 0.0 0.0
0.0 0.0 0.0 0.0 0.0 0.0 0.0 0.0
0.0 0.0 0.0 0.0 0.0 0.0 0.0 0.0
0.0 0.0 0.0 0.0 0.0 0.0 0.0 0.0
0.0 0.0 0.0 0.0 0.0 0.0 0.0 0.0
0.0 0.0 0.0 0.0 0.0 0.0 0.0 0.0
0.0 0.0 0.0 0.0 0.0 0.0 0.0 0.0
0.0 0.0 0.0 0.0 0.0 0.0 0.0 0.0
0.0 0.0 0.0 0.0 0.0 0.0 0.0 0.0
0.0 0.0 0.0 0.0 0.0 0.0 0.0 0.0
0.0 0.0 0.0 0.0 0.0 0.0 0.0 0.0
0.0 0.0 0.0 0.0 0.0 0.0 0.0 0.0

aggregator.mha.out_proj.weight f4 [128, 128]
00000000: 6170 a8bd 91e1 d5bc 155e 44bd d7b1 bc3d
00000010: cfce 143d 34a0 fb3c caef cbbd 60ce 9ebd
00000020: 37ff a8bc 7d3c cb3b fbc9 7dbc ebef 2e3c
00000030: 1773 14bb ed71 b93d 91f9 383d b51e 223d
00000040: 9725 08bd c9e1 773d 9c43 903c 9978 6abd
00000050: c84b a53c ba87 f5bc 817e 463b f98c 203d
00000060: 7310 a0bd 9ed4 c93d e953 433b 183d 823c
00000070: 5b93 a53b 09c6 4a3d 86a2 de3d dabb 6d3d
00000080: 25f7 ccbc c33d 65bd 101e 62bd 64e4 a83d
00000090: 9ba0 a73d 6eec fa3c cef7 5f3d c0d8 3c3d
000000a0: 6422 72bd 0712 493d 37d7 27bd 7c34 dfbd
000000b0: ae08 b5bd bc8c 1fbc 4fc1 183d 27cd 483d
000000c0: 1e08 873d f290 323d dfa3 2bbd f233 87bc
000000d0: ce96 ce3d e795 c0bd 793b 40bd 9697 7dbc
000000e0: 20c6 a6bc a034 5a3d f448 143d 088e d13c
000000f0: bc70 7ebd 0e18 ccbd 3711 08bc 5ea7 36bd
00000100: f99b 103d e859 44bc 358b aa3c 1fa8 223d
00000110: 73fd 66bd b78b 983c 6931 2e3d a3ba 7cbd
00000120: fc50 9ebc e507 b6bb f3ee 9f3d b46b 38bd
00000130: 618c c93c 10a0 2bbd 33ce a6bd e9f3 5e3d
00000140: db84 1a3d 0c83 c5bd 0328 28bc 73a5 c9bd
00000150: bf0a e33d ee3c bcbc d133 db3c 1bae adbc
00000160: d992 063b 6955 0c3d 68b6 c43c 3edc 773d
00000170: d69b 183d dada 48bd b2d9 97bd 52b0 b3bd
00000180: 3152 9b3c 852b 7d3d 80c4 9d3c d0eb 1bbd
00000190: 17c8 a43c 3a83 f53c b494 e63b f519 3ebc
000001a0: aff0 63bc b724 863c 7ca6 9ebd 3ba2 8e3d
000001b0: 95ba 873c 1036 51bd f8aa 983c 43f5 17bd
000001c0: e302 3e3b d10b c53c f935 e1bd 548d 8e3d
000001d0: 304d 313d 7620 7a3d 4b17 2b3d 77f5 11bc
000001e0: 079d 3e3d fc15 2f3d dfe6 9c3d 0714 5d3d
000001f0: 5b83 aabc 77f3 413d 3b4d 0bbc 3352 963d
00000200: 6d33 043d e2fd 57bc b1a6 0dbd beac b1bd
00000210: fa00 84bd a565 353d ccf3 46bd ec28 9e3d
00000220: 12db 2abd 93df 14bd c582 34bd d55e 6b3d
00000230: bf3e 10bd 6c8d a8bc 8eb6 3d3d ee39 cbbb
00000240: e3b8 9fbc 9d60 103c 7ff1 b2bd 86e4 debc
00000250: e20f dfbd 68ae a1bd 580e d6bd e1b2 8dbd
00000260: 490f 56bc 00b3 68bd 7177 53bd 251d 973c
00000270: 2407 2d3d 58f4 13bd 74ac f9bd 2912 b13d
00000280: b603 3e3d 92f8 c1bd 2827 9f3d a9d8 8cbd
00000290: 38aa 18bd 4293 e23c 53be a3bd 5d66 ffb9
000002a0: 81b2 e73c 74f9 28bd 702c b03d 825b 393d
000002b0: 68d0 1dbd 6748 853c e9cc af3d 2725 9b3d
000002c0: 50ed 33bc def4 083d 8a9e 8fbc 66fd eabc
000002d0: bbc9 e0bd 5d2f c13d 0295 4abc a3f0 21bd
000002e0: 7f2b e23a bb28 ccbd a711 4e3d b1d5 26bd
000002f0: f431 863d 3488 723d a4f5 ce3c b58e 423d
00000300: ba63 203d bbaa 863b 0dcb 49bc ed6f f4bc
00000310: fb71 4a3d 1ccb 693d 6275 1dbd ca42 e7bc
00000320: 93b8 abbd d012 23bd 0f83 2fbd c012 043d
00000330: ebca 64bd 9ae9 4fbd b890 99bd cb3d 593d
00000340: bb67 ecbc bb5f d9bc fdd7 73bd d706 a33c
00000350: f1a2 4e3d 67bb 2fbd 595f 9c3d cf58 56bd
00000360: b752 5abd 8694 863b c350 c3bd cdbe db3c
00000370: a335 133c dcc9 4c3c 335f 98bd 016a c7bc
00000380: 9047 94bd 9028 06bd ec3c ca3b 324b 7ebc
00000390: df3b 833d c54c 9abc e017 103d c986 14bd
000003a0: 5bf3 5c3d 5a3b 7b3d bba2 193d 26f6 8dbd
000003b0: ef51 1cbd 9876 d9bc d46f 18bd 4dc5 ebbd
000003c0: c552 4f3d 6061 bfbd 5633 e9bc b7a3 bcbd
000003d0: 7546 20bd 0c76 16bd 771b b2bd 7014 fd3b
000003e0: 4397 44bd 484f aebc 03e4 0d3d 3000 45bd
000003f0: 87e0 b03c c32f 47bd 52ff 91b9 35ee 2b3d
-0.082245596 -0.026108535 -0.047941286 0.09213608 0.03633004 0.03071604 -0.099578455 -0.07754207
-0.020629508 0.006202279 -0.01549005 0.010677318 -0.0022651607 0.09054933 0.04515988 0.039580066
-0.033238973 0.06051806 0.017610364 -0.057243917 0.020177737 -0.029971946 0.0030287805 0.039196942
-0.078156374 0.09855007 0.0029804653 0.015898272 0.0050529665 0.049505267 0.10870843 0.058040477
-0.025020191 -0.055967104 -0.05520445 0.08246687 0.0818493 0.030630317 0.054679684 0.046105146
-0.05911483 0.049089458 -0.04097673 -0.108986825 -0.08839546 -0.0097381435 0.03729373 0.049023774
0.06593345 0.043595262 -0.041904327 -0.016504262 0.100873575 -0.094035916 -0.046931718 -0.015478035
-0.020358145 0.053272843 0.036202386 0.025580421 -0.06211923 -0.099655256 -0.008304886 -0.044593208
0.035304997 -0.011984326 0.020818332 0.039711114 -0.05639405 0.018621309 0.04252759 -0.06170143
-0.019325726 -0.0055551403 0.07809248 -0.04502459 0.02460307 -0.041900694 -0.08144798 0.05443183
0.037724357 -0.09644136 -0.010263446 -0.0984601 0.11086034 -0.022978272 0.026758106 -0.021201184
0.0020534305 0.03426114 0.02401276 0.060512774 0.03725799 -0.049036838 -0.07414569 -0.08773865
0.01896009 0.06180908 0.019258738 -0.038066685 0.020114942 0.0299698 0.0070367698 -0.011602868
-0.013912364 0.016374929 -0.07746598 0.06964537 0.016568461 -0.05107695 0.018636212 -0.037099134
0.002899342 0.024053486 -0.109966226 0.0696055 0.043286502 0.061066113 0.04177026 -0.008908621
0.04653647 0.042745575 0.07661223 0.053974178 -0.020814588 0.047351327 -0.0085023 0.07339897
0.032275606 -0.013183089 -0.034582797 -0.08675526 -0.06445499 0.04428639 -0.048572347 0.07722649
-0.041712828 -0.03634603 -0.044070024 0.057463486 -0.03521609 -0.020575248 0.046316676 -0.006201974
-0.01949734 0.008812097 -0.08737468 -0.027208578 -0.10891701 -0.078945935 -0.104519546 -0.06918884
-0.013065168 -0.056811333 -0.05162758 0.018446514 0.042243138 -0.036121696 -0.12191096 0.08646042
0.046390258 -0.09471239 0.0777114 -0.06877262 -0.03727171 0.027658109 -0.07995286 -0.00048713657
0.02828336 -0.041253522 0.08602226 0.045253284 -0.03852883 0.016269876 0.085840054 0.075754456
-0.010981873 0.03343665 -0.017531652 -0.028685283 -0.10975977 0.09432862 -0.012364628 -0.03953613
0.0017255394 -0.09968706 0.050309803 -0.040731136 0.065524966 0.059211925 0.025263615 0.047499377
0.039157607 0.004109708 -0.0123164775 -0.029838527 0.049425106 0.057078466 -0.038442023 -0.02823009
-0.08384814 -0.039812863 -0.042849597 0.032244444 -0.05585758 -0.05075989 -0.07498306 0.053037446
-0.028858056 -0.026534906 -0.059532154 0.019900722 0.05044836 -0.04290333 0.076353736 -0.05233079
-0.05330154 0.004107061 -0.095368885 0.02682438 0.008984956 0.012499299 -0.07440033 -0.024342539
-0.07240212 -0.032753527 0.0061718132 -0.015520858 0.06407904 -0.018835435 0.03517902 -0.036261354
0.05394302 0.0613359 0.037508707 -0.06931715 -0.038164075 -0.026545808 -0.037216023 -0.115122415
0.050616045 -0.09344745 -0.028466862 -0.09210914 -0.039129693 -0.036733672 -0.08696645 0.0077233836
-0.047995817 -0.021278039 0.034641277 -0.048095882 0.021591438 -0.048629533 -0.00027846784 0.04197522

aggregator.mha.out_proj.bias f4 [128]
00000000: 9c26 fc3a 538b 13bb 075f 4abb 08ef 29bb
00000010: c210 03bb 792d f6ba 3904 4b3b e721 2a3b
00000020: c730 9cba 2b0d 93b7 70fc 843b 1e2c 5c39
00000030: f074 f23a 13d4 25ba ef20 7c3b 4d54 193a
00000040: 476d 35bb 992a b3bb ff8b 2ebb 4911 ce39
00000050: 7d27 f33a 4649 aeba 7bf7 ec3a 22f6 a6ba
00000060: 96b4 083b f04c cbba f7df a4b9 c2f8 4139
00000070: a058 ac3a 5838 66bb ffba aa39 d113 863b
00000080: ffc3 803a 0bc2 c638 5ec0 59bb 8e60 9fba
00000090: d78b 57bb b0ac 1c3b a8a3 98bb 746e e2b9
000000a0: 462c 3aba c4eb 6a3a 620a 4c3b 04b1 82bb
000000b0: aec3 333a e1e8 0e3a 039d 92ba 7956 77ba
000000c0: 6c3d 923a da4d 8d39 24db f5b9 e4d2 0c3b
000000d0: 3a0b af3a 76d8 40bb a57a 07ba e6c8 963b
000000e0: abf9 e038 9652 1a3b 18e4 cc3a 1a26 f2ba
000000f0: 1208 5dba 1c78 99ba a969 84ba 8f62 91ba
00000100: 6b60 d7ba 0341 873b 745f c73a 35e7 a1ba
00000110: c514 29bb c08d bc3a d888 c938 1f94 e73a
00000120: d576 0e3a 683c 353b 148f 3fbb a25d 413a
00000130: 6216 86b7 a4d1 613b 192c 00bb fa43 2dbb
00000140: c762 5cb8 f550 003b b33b 3c3b a561 2eba
00000150: fd8e 023a f2fb 19ba 5a3b 713b 64c9 41bb
00000160: d285 6a3a e14e bc3a 6e0e a6bb 783e 863a
00000170: 7ee3 b8bb 33dd 01bb 8436 86ba b005 0539
00000180: 6afe e5b9 40d4 033a 2fbc ae3a c40a 4139
00000190: 3427 943b e443 26bb e96d 0eba 9d80 153a
000001a0: 2204 273b c03e 153b 85f9 1a3b 4938 95ba
000001b0: ea64 163b d9e1 ab39 5565 1dbb a668 2d3b
000001c0: d23b 95ba adad 253b d269 8a38 edd7 ffba
000001d0: 1bc0 373b d207 3738 9433 1fbb 6812 c3ba
000001e0: d89f a9b9 04be ef3a 5563 2d3b e625 c03a
000001f0: 30a2 5e3a a97b abba 7241 92ba 199a 46bb
0.0019237581 -0.0022513464 -0.0030879395 -0.0025929827 -0.0019999002 -0.0018781862 0.0030977859 0.0025960149
-0.0011916392 -1.7529897e-05 0.004058413 0.0002099727 0.0018497985 -0.0006325852 0.0038471778 0.00058490486
-0.0027683543 -0.0054677245 -0.0026633737 0.0003930426 0.0018551197 -0.0013296984 0.0018079126 -0.0012738148
0.002085959 -0.00155106 -0.00031447384 0.00018498584 0.0013148971 -0.0035128798 0.0003256425 0.004091718
0.0009824036 9.477519e-05 -0.0033226232 -0.0012159513 -0.0032889748 0.002390664 -0.004658181 -0.00043188373
-0.0007101934 0.00089615234 0.0031134118 -0.003988387 0.00068574667 0.0005451572 -0.0011185709 -0.00094351877
0.0011157221 0.0002695162 -0.00046893314 0.0021488005 0.0013354786 -0.0029425896 -0.0005168117 0.0046015857
0.000107276566 0.002354776 0.0015631942 -0.001847449 -0.00084316835 -0.0011708769 -0.001010229 -0.0011091995
-0.0016431933 0.004127623 0.0015210942 -0.001235223 -0.0025799733 0.0014385507 9.609916e-05 0.0017668045
0.00054345775 0.0027654413 -0.0029229568 0.0007376318 -1.5984468e-05 0.003445723 -0.0019557534 -0.0026438222
-5.254408e-05 0.0019579504 0.0028722107 -0.00066521234 0.00049804134 -0.00058740296 0.0036809058 -0.00295695
0.00089463324 0.001436677 -0.005067638 0.0010242006 -0.0056423536 -0.0019815683 -0.0010239636 0.00012685987
-0.00043867837 0.0005028881 0.001333123 0.00018409925 0.004521275 -0.0025370056 -0.0005433248 0.0005703064
0.002548464 0.0022772998 0.002364726 -0.0011384572 0.0022948333 0.0003278393 -0.0024016697 0.002646008
-0.0011385626 0.002528052 6.600063e-05 -0.0019519307 0.0028038088 4.3637883e-05 -0.0024292218 -0.0014882805
-0.00032353285 0.0018290882 0.0026456912 0.0014659732 0.0008492796 -0.0013083118 -0.001115842 -0.0030304252

aggregator.norm.weight f4 [128]
00000000: 7582 7b3f 8181 7b3f fd8d 803f 9594 823f
00000010: 23a5 803f 4e32 7b3f b2e6 7e3f c3bf 7e3f
00000020: 5dca 823f c875 7b3f 6e24 843f a57c 823f
00000030: 79d1 7e3f f7c6 783f d3e8 843f 0f0a 833f
00000040: ec46 803f 4729 813f 13d8 7c3f b9ff 7d3f
00000050: fbab 7e3f d92a 823f aced 7f3f ab28 7f3f
00000060: 8ece 7b3f c1c8 7e3f 5a38 7b3f 777b 7f3f
00000070: c611 773f 1f34 853f 246a 803f 9136 843f
00000080: ae09 853f 5c1f 783f d93f 843f 4938 803f
00000090: b01f 803f 2c3e 823f d2e1 843f 3ac2 763f
000000a0: 60c1 743f 36a0 803f 222f 7d3f 20c3 823f
000000b0: d7b9 7c3f cec1 7d3f a8c3 7c3f 3b03 7e3f
000000c0: d1ab 813f b1c1 813f b7ad 813f db7f 813f
000000d0: 2419 7a3f 3696 7d3f 2a90 813f ae22 863f
000000e0: dd8a 7c3f de85 803f e94e 823f ab33 7c3f
000000f0: 7e48 7f3f 66a9 7e3f 3bdc 793f 6247 773f
00000100: 055d 7a3f cd41 823f e6c6 7c3f 9e11 7c3f
00000110: 76da 7a3f 66d7 7d3f 449d 803f 142a 813f
00000120: f951 7f3f 80a4 7e3f 0c18 7c3f c4fe 7f3f
00000130: 9a34 803f 4139 7f3f 2a5b 813f 889b 7e3f
00000140: bc3c 813f 65ec 813f e337 7b3f 24f9 7a3f
00000150: d386 813f 8ecd 803f 8214 833f c829 833f
00000160: 190e 7b3f 221f 813f 5362 873f ae07 7f3f
00000170: fc34 843f de08 7b3f 8f29 763f b943 853f
00000180: 6da4 7e3f 4487 803f 0ec9 803f b8cc 813f
00000190: a088 893f 5007 863f 4258 793f 26a3 7a3f
000001a0: b156 7f3f eb4e 803f 1d0b 7d3f 0ca1 7d3f
000001b0: 2a60 823f 84c3 7e3f 0eb5 813f 5511 7e3f
000001c0: f839 7f3f ff8a 823f 3316 7f3f 9648 793f
000001d0: 6482 7b3f 5ab8 7d3f 55fb 803f 4647 7e3f
000001e0: 9192 7f3f f47e 7e3f 7846 833f ad2c 783f
000001f0: 3b08 763f 7f14 833f ef27 823f e48b 7f3f
0.98245937 0.9824448 1.0043331 1.0201594 1.0050396 0.98123634 0.99570763 0.99511355
1.0218006 0.98226595 1.0323617 1.0194288 0.9953838 0.97178596 1.0383552 1.0237445
1.0021644 1.0090722 0.98767203 0.99218327 0.9948117 1.0169326 0.99972034 0.9967143
0.9836205 0.99525076 0.9813286 0.9979777 0.96511495 1.0406531 1.0032392 1.0329152
1.0393579 0.9692285 1.0331985 1.0017177 1.000967 1.0175223 1.0381415 0.96390116
0.95607567 1.0048892 0.98900044 1.0215797 0.9872107 0.9912385 0.9873605 0.9922368
1.0130559 1.0137235 1.0131139 1.0117143 0.9769461 0.9905733 1.012212 1.0479333
0.9864939 1.0040853 1.0180331 0.9851634 0.9971999 0.9947723 0.9760167 0.96593297
0.97798187 1.0176331 0.98740995 0.9846438 0.97989595 0.99156797 1.0047994 1.0090966
0.99734455 0.9946976 0.9847419 0.99998116 1.0016053 0.9969674 1.0105946 0.9945607
1.009666 1.0150267 0.9813215 0.9803641 1.011927 1.006273 1.0240633 1.0247126
0.98068386 1.0087626 1.0576881 0.99621093 1.032867 0.98060405 0.96157163 1.0411292
0.99469644 1.004128 1.0061357 1.01406 1.074482 1.0470982 0.97400296 0.97905195
0.99741656 1.0024084 0.9884508 0.99073863 1.0185597 0.99517083 1.0133379 0.99245197
0.9969783 1.0198668 0.9964325 0.9737638 0.98245835 0.99109423 1.00767 0.99327505
0.9983302 0.99412465 1.025588 0.9694317 0.9610631 1.024063 1.0168437 0.9982283

aggregator.norm.bias f4 [128]
00000000: 29a5 c1b8 e383 5fbc 44b6 f3ba ff6d a6bc
00000010: 010a 3cbc c266 803c 5ff6 a93c 0829 a8bb
00000020: f6b5 14bd a272 7d3c d179 853c f426 9c3c
00000030: e9be 35bb 7e06 d33c d8bc f83c ac2d 74bb
00000040: e0a7 dfbb a8e5 9bbc ada0 a2bc f04c 13bc
00000050: 4718 bdbc ff17 12bd 4dc5 5a3c 7d62 2abc
00000060: 802f c33b 6615 bf3a e05d 603c 651a 57bb
00000070: 3cb3 813b e5a2 b93b 7f7c 183d b720 84bb
00000080: 5a94 153d 3d10 3cbb e1c5 f83c f014 c3ba
00000090: 94c3 df3b be96 b1bb 3bd0 5fbb ac8e e13c
000000a0: 1d47 323a 5959 993c 6257 46bb 4eac 93bc
000000b0: 9ee3 efbc 56e6 8f3c e87d dcb9 f7a3 fe3c
000000c0: 3bf4 03bc 428f 99bc 3116 2bbc c170 723c
000000d0: 1243 8a3c d5ec f2bc 09f2 80bc 679e 96bb
000000e0: 4411 263b d756 45bb 2984 bcbc 6041 7abb
000000f0: 4573 a23c 7917 83bc 3463 533c 871c 31bc
00000100: 32a8 283c 6be3 6638 ee4a 8e3c e7f0 3d3c
00000110: e8da 5b3c d57c 9a3c 4a50 ec3c 68ec d5ba
00000120: 8076 bc3c 201c 3fbb 6c4e b03c 9035 78bb
00000130: fb57 01bd 957f e93a 1d4d be3b c425 c9bc
00000140: af95 b53c 89de 31bb 0fc4 1fbb af86 e73b
00000150: afe6 80b9 69f4 e8bc f92c c23c 6236 d5bc
00000160: 4df1 d83a c1d0 8c3c 1bd0 e93b 5f96 a1bc
00000170: 677e cbbc d605 c1bc 7813 d6bc 7774 8e3c
00000180: 9434 263d c91e dab9 52e1 f53c cc5c 0b3d
00000190: 6bbb 9bba 005b c8bc ea7f 45bc 1a61 cfbc
000001a0: fbd9 dc3c 6e00 633c 16fd 553c 5a89 bbbc
000001b0: 7b51 88bc 0105 de3c 4923 cfbb 34a7 adbc
000001c0: 7075 813a ac2c 3dbb 66f0 a63c 3d91 403c
000001d0: a0ee d53c 68e2 803c 8c6a b2bc 398e b03b
000001e0: 6b1c 84bc 74ef 6dbc da04 e6bc 0222 933b
000001f0: ee98 42bc 2c5a 19bd 5b63 23bc 8a76 f3bc
-9.2337206e-05 -0.013642284 -0.0018593748 -0.020316122 -0.0114769945 0.015673999 0.020747362 -0.0051318444
-0.036306344 0.015469225 0.016293438 0.019061543 -0.00277322 0.025759932 0.030363485 -0.0037258668
-0.006825432 -0.019030407 -0.019852007 -0.008990511 -0.023082865 -0.035667416 0.013352704 -0.010399458
0.00595659 0.0014578521 0.013694257 -0.003282213 0.003958134 0.0056651705 0.037228104 -0.00403222
0.036518432 -0.0028696202 0.030367794 -0.0014883559 0.0068287347 -0.005419581 -0.0034151215 0.027533852
0.0006800758 0.018719362 -0.0030264487 -0.018026497 -0.029283341 0.017565887 -0.00042055477 0.031084044
-0.008053835 -0.018745068 -0.010442303 0.01479739 0.016877685 -0.029653946 -0.015740411 -0.0045965197
0.002533988 -0.0030111575 -0.023012238 -0.003818594 0.019830355 -0.016002404 0.01290207 -0.010810024
0.010294007 5.5048073e-05 0.017369714 0.01159308 0.013418891 0.018858353 0.028846879 -0.0016321065
0.023005724 -0.002916105 0.02152177 -0.0037873723 -0.031578045 0.0017814512 0.0058075325 -0.02455414
0.022166101 -0.0027140698 -0.0024378335 0.007065616 -0.00024585935 -0.028436856 0.023703085 -0.026026908
0.0016551405 0.017189385 0.007135404 -0.019725023 -0.024840547 -0.023562353 -0.02613233 0.01738952
0.040577486 -0.00041603137 0.030014668 0.034024045 -0.0011881416 -0.024457455 -0.012054423 -0.025314856
0.02695941 0.013855083 0.013060829 -0.022892643 -0.016640415 0.027101995 -0.006321345 -0.021197893
0.0009876918 -0.0028865738 0.020378303 0.0117533775 0.026114762 0.015732959 -0.021779321 0.005388048
-0.016126832 -0.014522422 -0.028078485 0.004490138 -0.011877282 -0.03743951 -0.009972419 -0.02971961

aggregator.fc_out.weight f4 [128, 128]
00000000: 3438 77bd fad1 e53c f2a5 72bd 5538 453d
00000010: a14c 70bd 3562 4abd 27a0 9fbd dd9e 9bba
00000020: e3f4 42bd ad59 a63c cc2f 4d3d 13ef bb3c
00000030: 5eed 98bc 2cf0 7f3d 636a f9bc 6ef3 733d
00000040: dd20 583d af4d 953d 9fbe 243d aa54 f5bb
00000050: 9b09 0dbd c8e9 2ebd a2d6 133c 79c1 493d
00000060: 8902 313d d982 833c 78c0 903d f31f a83c
00000070: 1246 cbba bab6 acbd 5ce1 023b ed41 9c3d
00000080: f090 fb3c 16f3 42bd 01bb 0ebd b8a2 b4bd
00000090: d260 09bb b4a4 a33d 5be9 5d3d b19b e3bc
000000a0: cd37 293d 16a8 5fbd e53b 163d d012 c83d
000000b0: 54b9 7f3d f9c2 b1bd c77d babc eae4 cdbd
000000c0: 5a6d 82bd d633 153d 670c bbbc 922a c7bd
000000d0: d275 8dbc b793 833d ba36 613c c35e aa3d
000000e0: 1efe 23bd 5fd9 8b3d 92eb 7bbd e34e 7ebc
000000f0: b896 f93b 8f80 263d c2f9 303c 988f 783d
00000100: 71b0 563c d333 cc3d 8ddb 933d e6e7 60bd
00000110: 640f 91bc 45cb 14bc 55e5 cbbc 5ad2 af3d
00000120: e928 ab3c fbed 8f3d 162d 05bd d445 13bb
00000130: 0827 3e3d dc87 833d e463 d53a 7e1b 5bbd
00000140: bf9a 813c ec0b 283d 7b5c 923d 9aed 4bbd
00000150: 020a b73c 9127 84bd 961a b73b ef99 c5bb
00000160: d6d2 963b 023a 89bd b286 3cbd f570 873d
00000170: 3e8d c1bc 85df 4f3d ac54 a6bc ff9b 063d
00000180: 4d89 6cbc e952 88bd 49f0 b83c 8635 a2bd
00000190: b593 393d f187 54bc d30d 9c3d ad7c a33d
000001a0: 954f 993d 68f2 6dbd d35c 99bd 8856 40bd
000001b0: b920 e13c cff3 87bd 4c8b d83c 4a04 393d
000001c0: 15b0 923d 2b3e b3bd ccc9 3dbd 015d 7d3c
000001d0: a29b 8cbb 18e4 1cbd 206d b1bd 2913 083c
000001e0: be77 0fbd e19c 203d 5da7 9a3d 71ec 1f3d
000001f0: 8f7a 063d d81e c7bc 6f3a 2fbd 23b6 063d
00000200: 22fb 853d 2a8b a4bd 1fe0 9a3d 549e 993c
00000210: df33 4abd 78f2 76bd 8fa0 89bd a505 2abd
00000220: b243 2cbd 92a7 3b3c bedf d6bc 1953 143b
00000230: 00a5 a53d 4a59 4a3d efb4 853d 3ccf a73b
00000240: 35a7 1dbd e086 9dbd 2015 b4bd aafb 57bd
00000250: b346 f93b 9708 df3d ff3d 443c d6d0 95bd
00000260: 3718 113d e1d5 633d efa7 35bc cf73 fd3b
00000270: 0b72 373d 1d1e 453c 285b 51bc d556 45bd
00000280: 036d f73c 2e4d 823c 9d67 d1bc 3270 7cbc
00000290: cd2f 063d bbbe ab3c 8529 613d 80e7 f13c
000002a0: f8ae 3ebc 9a2c a73d 3020 553d 85ef bc3c
000002b0: 6359 23bd 421c 783d e3c6 723c 0cd4 1ebd
000002c0: 6ccd 81bd c4f7 783d abc9 9ebd ebb4 97bd
000002d0: 6e70 c9bb d518 4abd 7a63 77bd 1861 89bc
000002e0: 072d 953d 44c5 2cbb 2825 913c 50ab 94bd
000002f0: 9589 86bd 7f26 cb3d 302f 433c 407f 723c
00000300: cb0d d83d 72a6 59bd 4753 33bc 26b3 ffbc
00000310: b559 b2bd e7a6 e2bb 9039 9ebd 6d8f 813d
00000320: d8b8 2d3d f349 9bbc 3de9 263d d5b4 0eba
00000330: 3c78 243d e110 573d 6366 9c38 9a81 0b3d
00000340: 4f83 f23d 541f 863d 0e9d e1bc 9131 4abd
00000350: f2f8 9cbc c337 51bd a7f3 4b3d e7ae 4bbd
00000360: 53a8 96bd 9da8 563d 5ba0 35bd 3f43 8b3d
00000370: 3b46 a8bd c5b1 96bd 8b55 68bc e3b5 613d
00000380: bb87 203d 74a5 f2bc e1d1 823d d004 34bd
00000390: 29f3 d6bc b6d6 2f3d 2d9f f33c 9f6d ab3d
000003a0: 3936 cf3c 43c1 bcbc 8914 ad3d c51f 9fbd
000003b0: 6ca8 5f3d 7e5a 273c a6c3 843d 8e09 70bd
000003c0: 3524 38bd cdf2 b23d e8f9 e7bc b860 96bd
000003d0: bc04 18bd 7180 7bbd cf9d c8bc 2bbf 22bc
000003e0: 331b 9e3c 453e 7b3d d833 a33d bd7e 3abd
000003f0: f79a d93b 4ddd 8a3d f765 a13d e143 403d
-0.060356334 0.028054226 -0.05924029 0.048149426 -0.05866683 -0.049410064 -0.077942185 -0.0011872906
-0.047596823 0.020306433 0.05009441 0.022941148 -0.018667873 0.062484905 -0.030446237 0.059558325
0.052765716 0.072902076 0.040220853 -0.0074868994 -0.03443299 -0.04270342 0.00902334 0.049256776
0.04321531 0.016053604 0.070679605 0.020523047 -0.0015508553 -0.0843329 0.001997075 0.07629762
0.03070876 -0.047595106 -0.03484631 -0.08820099 -0.002096225 0.07990399 0.054177623 -0.0277842
0.04131298 -0.05460366 0.036678214 0.09769213 0.062432602 -0.08679766 -0.022765053 -0.100534275
-0.063685134 0.036426388 -0.022833062 -0.097249165 -0.017268095 0.06424659 0.013745958 0.083188556
-0.040037267 0.068285696 -0.061503954 -0.015521738 0.007616844 0.040649947 0.010801734 0.060683817
0.01310359 0.09970822 0.0721961 -0.054908656 -0.017707534 -0.009081666 -0.024889627 0.08585043
0.02089353 0.07027813 -0.0325137 -0.002247204 0.04642394 0.064223975 0.001628038 -0.053493015
0.015820859 0.041026995 0.071465455 -0.04978714 0.02234364 -0.06452859 0.005587886 -0.006030313
0.0046027703 -0.06700517 -0.046026893 0.06613342 -0.02362692 0.050750274 -0.020304047 0.032863613
-0.014437032 -0.06656439 0.022575514 -0.07920365 0.04530688 -0.012971864 0.07619824 0.079827644
0.07485882 -0.058092505 -0.07488408 -0.046957523 0.027481424 -0.066383 0.02643361 0.045170106
0.07162491 -0.08752092 -0.046335027 0.015464068 -0.004291014 -0.038303465 -0.08663392 0.008305349
-0.035026304 0.03921211 0.07551453 0.039043847 0.032831725 -0.0243067 -0.042780336 0.032888543
0.065420404 -0.08034356 0.07562279 0.018752255 -0.049365874 -0.06028983 -0.06720077 -0.04150929
-0.042056747 0.011453526 -0.026229735 0.0022632538 0.08088112 0.04940156 0.06528651 0.00512114
-0.03848954 -0.07691741 -0.08793092 -0.05273024 0.007607305 0.1089031 0.011977672 -0.07315223
0.035423484 0.055623893 -0.011087402 0.0077347527 0.044786494 0.012031105 -0.012778081 -0.048178513
0.030203348 0.015905943 -0.025562102 -0.015407609 0.03276043 0.02096497 0.054971237 0.029529333
-0.0116383955 0.08162804 0.05203265 0.02306343 -0.039880168 0.060573824 0.014817926 -0.038776442
-0.06338009 0.060783163 -0.07753309 -0.07407554 -0.006147436 -0.049340088 -0.060397603 -0.01676993
0.07283979 -0.0026362697 0.017717913 -0.07259238 -0.065692104 0.09919452 0.011913106 0.014800847
0.10549506 -0.05313725 -0.010945148 -0.031213354 -0.087085165 -0.006916869 -0.07725823 0.063261844
0.04241261 -0.01895616 0.040749777 -0.0005443816 0.040153727 0.05250633 7.457731e-05 0.034059145
0.118414514 0.06548944 -0.02754071 -0.049363676 -0.019161675 -0.05107857 0.04979291 -0.049727347
-0.07356324 0.052406896 -0.04434238 0.067999355 -0.082165204 -0.073581256 -0.014180551 0.0551051
0.039191943 -0.02961991 0.063876875 -0.043949902 -0.026238995 0.042929374 0.029738987 0.08370518
0.02529441 -0.023041373 0.084511824 -0.077697314 0.05460398 0.010214446 0.064826295 -0.058602862
-0.044956405 0.08737717 -0.028317407 -0.073426664 -0.03711389 -0.06140179 -0.024489312 -0.009933273
0.019300079 0.06133868 0.07968873 -0.045531023 0.0066407877 0.06780491 0.078807764 0.046939734

aggregator.fc_out.bias f4 [128]
00000000: eb59 39bd bf01 0b3d e487 fe3b 117a 93bd
00000010: 32ab 35bd 884c b6bd 6252 123d 4863 c73d
00000020: 0e46 113d 4a9a fd3b e4da 52bd 9018 93bd
00000030: b67c 3abd 5440 11bd 0749 51bd 802d 073d
00000040: 2b9f 463d 7b0d 35bc ba34 28bd a2a7 2abb
00000050: bd86 b9bd 1ce2 2abd bb47 093d 15d2 cc3d
00000060: edeb 133d a6f8 dbbc b6ef 91bd ded9 23bc
00000070: 5ba8 97ba cb9a 993d ce4d 093d b309 82bd
00000080: 3d93 423c 263c 8abd 1058 ba3d a24b 5bbb
00000090: 08f7 d3bc 824e 1fbd 7282 d43d e3f6 3c3d
000000a0: 0b0a 80bd 0b82 923d 3088 4bbd dc23 933d
000000b0: 4290 753d c441 363d b2b2 b9bd 35e1 c23d
000000c0: 2241 f73a adf1 24bc fcf1 03bd b259 b9bd
000000d0: 0944 7fbd 9027 cabd e0ec 9d3d a07c 4cbd
000000e0: 6f83 a0bd 2f12 9bbd f0d8 adbd 9e7b 98bd
000000f0: 7090 f2bc 9617 003e 04a2 fcbc 39fb cc3c
00000100: 36d1 89bd 81b7 733d c62c fe3d ba77 7d3d
00000110: 272f 69bd 95de 98bd 9609 af3b 45a3 97bd
00000120: 27e0 5f3d 2ae4 a8bc 1a92 b03c 2241 8bbd
00000130: d454 28ba 37ce 893d dd0c d1bc bbd5 76bd
00000140: 72d0 95bd f9c4 09bd e41a 5bbc 183a e53c
00000150: 83af 8dbd aa83 e53c 6e36 9f3d f001 243d
00000160: 63e6 13bd 39b0 9ebc 9738 48bd 8ba3 ba3d
00000170: a77e d4bc fd5b 393d 4b81 c9bd caaf 283c
00000180: 5ea0 8f3d fb7a efbc 559c a13d b457 8bbd
00000190: 43b3 83bd 46bf 62bc 6cd1 553d a2e2 82bd
000001a0: d6a0 32bc a7dd c5bc f685 873d 64e7 cd3a
000001b0: d6ba d63c d8de 643d 1b26 863d ad66 0fbc
000001c0: 4ca2 8c3d 9880 533d ff13 adbd 6c32 cf3c
000001d0: 79ba 703c 16dd 723d 98d6 b4bd 4632 873d
000001e0: 955b 47bd 13d9 c4bc 6bcc aebd 4d1c 1c3d
000001f0: f1a3 8dbd e64e 73bc 5be1 99bd e4aa 753c
-0.045251768 0.033937212 0.0077676643 -0.07201017 -0.044352718 -0.08901316 0.035723098 0.09735733
0.0354672 0.00773934 -0.05147828 -0.07182419 -0.04552909 -0.03546174 -0.051095035 0.033002377
0.04849164 -0.011050577 -0.04106591 -0.0026039858 -0.090589024 -0.04171954 0.033515673 0.100010075
0.03611367 -0.026851963 -0.07125799 -0.010000674 -0.001157056 0.075002275 0.033521466 -0.06349506
0.011875925 -0.06749754 0.09098828 -0.0033461829 -0.02587463 -0.03889323 0.10376443 0.046133887
-0.062519155 0.0715371 -0.049690425 0.07184574 0.059952028 0.044496313 -0.090672866 0.09515611
0.0018864016 -0.010067386 -0.032213196 -0.09050311 -0.062320743 -0.09870827 0.07711196 -0.04992354
-0.07837569 -0.075718276 -0.08488643 -0.07445453 -0.029609889 0.12508997 -0.030838974 0.025022136
-0.06729357 0.059501175 0.124108836 0.06188176 -0.056929734 -0.07464329 0.005341719 -0.07404188
0.054657128 -0.02061661 0.021554042 -0.067995325 -0.0006421332 0.067287855 -0.025518829 -0.060262423
-0.073151484 -0.033635113 -0.01337311 0.027981803 -0.06918242 0.028016884 0.077740535 0.04004091
-0.036108386 -0.019371139 -0.048882093 0.091132246 -0.025939299 0.045253742 -0.09839114 0.010295818
0.070130095 -0.029233446 0.07891146 -0.068038374 -0.06430676 -0.013839548 0.052201673 -0.06390883
-0.010902604 -0.024153544 0.06617348 0.0015709219 0.026212137 0.055876583 0.06550237 -0.008752507
0.06866893 0.05163631 -0.084510796 0.025292598 0.014692896 0.059292875 -0.08829993 0.06601386
-0.048671324 -0.02402929 -0.085350834 0.038112927 -0.06916035 -0.014850354 -0.07513686 0.014994357

aggregator.att_fc.weight f4 [1, 128]
00000000: bddc 8ebd 267d bc3c cd89 0b3c 4f82 8cbd
00000010: c31b 9fbd 5f52 893c 7ae8 b6bc ad88 cabc
00000020: f307 d6bd 0422 843d 6deb 9dbd ff51 543d
00000030: b227 cabc e744 54bd 2d20 873d 5536 7bba
00000040: c5b5 a83c 6003 713d 0602 4d3d 5439 743d
00000050: 04fc 6f3d 330e 833b 1688 3ebd dc17 35bd
00000060: ed00 633c 40c8 ecbb 8f25 43be 1b13 423d
00000070: 1c78 5cbd f018 ba3d 20a6 0f3d fe89 b5bd
00000080: 46b4 883d 5a90 b5bd 156d 5abc 2201 583d
00000090: 3722 a03d 8c3d 4ebd 4ade d63d 9c6a 0db9
000000a0: 5f4b 2eb9 8c7b a6bc 484c 2f3b c8d8 5dbd
000000b0: dd9a 1b3d 106c f1bc b9a0 953d 114b b23c
000000c0: aaac f73d cd45 40bd 1365 b83d b826 4fbc
000000d0: af19 ad3d 1186 1c3a b51f b1bd 7925 fbbd
000000e0: 5b65 b83c 39b9 de3c 0be8 953d a1a4 213d
000000f0: 8f27 e7bc a0ab bfbd 83d0 773c a26b b8bd
00000100: 85b8 0dbe edc1 4fbd 844e b23d d334 29bd
00000110: 6ff3 b5bc cd56 6c3d 4f9d 45bd 1187 e53a
00000120: 47c6 bfbc a904 2fbc 41d7 8c3d 3c96 95bb
00000130: 64ad 88bd 7252 a4bc d2df 383c a8b7 ffbd
00000140: cd14 783d 886d 403d 01dd efbc 175e 98bc
00000150: 3255 6e3d cd74 bfbc b1aa bfbd 80d5 b9bb
00000160: 8911 403d 8d66 20bd 818b a3ba 4cea 66bb
00000170: 3ef5 093d a16c d7bc c42c aabb 3e7e 143c
00000180: c76e 36be 1942 adbd 5427 b8bb 791b cabd
00000190: cef9 8c3d 1875 14be 531d 673d dda4 833d
000001a0: c059 e2bd e2ea 8b3c 0465 16bd 8e46 34bd
000001b0: 70e2 59bd 35b6 62bd 3aca 923d 607e 7d3d
000001c0: 4f35 a3bd 32f9 59bd 391f 3a3d d516 f63a
000001d0: 11d0 263d b6e4 25be 0671 47bd fb4d aa3d
000001e0: 0a46 b7bb 52dc 103d ddc1 743d fe3b b0bc
000001f0: 9aa4 5bbd 0496 20bd 3677 72be 3647 e73b
-0.06975696 0.023008894 0.008516741 -0.06860792 -0.07768967 0.01676291 -0.02232765 -0.024723375
-0.10450735 0.064518005 -0.077109195 0.05183601 -0.024677131 -0.051823523 0.06597934 -0.0009582986
0.020594487 0.05884111 0.050050758 0.059624985 0.05858995 0.0039994954 -0.0465165 -0.044212207
0.013855201 -0.00722602 -0.19057296 0.0473815 -0.053825483 0.09086788 0.03507054 -0.088642105
0.066750094 -0.088654235 -0.013331671 0.052735455 0.07819026 -0.050351664 0.10491617 -0.00013486523
-0.00016622011 -0.020322584 0.0026748348 -0.054161817 0.037989486 -0.029470474 0.07306046 0.02176431
0.1209348 -0.046941567 0.090036534 -0.012643509 0.084521644 0.0005970905 -0.08648626 -0.12263007
0.022509268 0.02718793 0.07319649 0.039463643 -0.028217105 -0.09358907 0.015125397 -0.09004904
-0.1383992 -0.05072205 0.08706382 -0.041310143 -0.022210805 0.057699967 -0.048245724 0.0017511566
-0.023409976 -0.010682263 0.06876994 -0.0045650285 -0.06673697 -0.020058844 0.011283832 -0.124862015
0.060566712 0.046979457 -0.029280188 -0.018599553 0.058186717 -0.023371125 -0.09358729 -0.005671203
0.046891723 -0.0391603 -0.0012477488 -0.0035234867 0.033681147 -0.026296915 -0.0051933248 0.009063302
-0.17815696 -0.08459873 -0.0056199227 -0.09868521 0.06883584 -0.14497793 0.05642445 0.064279296
-0.11052275 0.017079774 -0.03671743 -0.0440126 -0.053194463 -0.055349547 0.07167478 0.0618881
-0.07969152 -0.053216167 0.045439932 0.0018775115 0.04072577 -0.16200528 -0.048691772 0.08315655
-0.005593066 0.035366364 0.059755195 -0.021512982 -0.053623773 -0.039205566 -0.23678288 0.0070580496
