models/AttnFuseNet_multiclass.pt (torch, 740985 bytes, 33 tensors)

aggregator.fc_in.weight f4 [128, 107]
0.058838427 0.107068405 -0.017969763 0.0028093674 0.07326855 -0.06995091 -0.06336125 0.07769284
0.009410598 0.05026773 0.10898061 0.010790295 -0.015340473 0.010447618 -0.0629472 0.045018546
0.10582674 0.0836506 -0.048830293 -0.051436305 0.026214115 0.03980376 -0.059935413 0.14374876
0.0794712 -0.030598145 0.12217962 0.20393439 0.036725458 -0.04860777 0.06612299 0.11270968
0.08425535 0.08929706 -0.051186644 -0.04979395 0.097812094 -0.008932387 0.008437757 0.006311619
0.020935798 0.11573041 0.08265681 0.10709656 0.096298024 -0.0826006 0.035417967 0.042755757
-0.013368867 -0.07371185 -0.07743347 -0.060430273 -0.056287017 -0.061845038 -0.06702779 0.08041389
0.007823633 0.006998546 0.09391072 0.022435486 -0.07198205 0.17331792 0.055337664 0.03478624
-0.0018119586 0.040931415 -0.04501403 -0.096459284 -0.024763806 -0.0558594 0.10883311 0.114955634
-0.112855665 0.054907173 -0.058195982 0.16914342 0.032898594 0.09701791 0.045154136 -0.06164202
0.06162033 -0.07970889 0.055083867 0.15482584 -0.0117447125 0.101360835 -0.017611813 0.1295202
0.009761314 0.01090982 -0.1055678 -0.05751074 0.053113822 0.08547202 0.031464998 -0.009421925
0.18320808 -0.004292988 0.09986905 0.049759943 -0.033691157 -0.0786367 -0.061457943 -0.020241307
0.08298539 -0.04615851 0.09261961 0.07784056 0.11835863 0.04232212 -0.07214794 -0.067891926
0.010737993 0.01982466 0.09877787 -0.026489574 -0.03490979 -0.048414666 0.09471932 0.05913494
0.04414908 0.013005051 -0.09126891 0.068517014 -0.060581356 -0.09858649 -0.020350073 -0.0821901
0.008150388 -0.12478274 -0.021674857 -0.07692574 -0.053661708 -0.080951646 -0.10268752 0.031044062
0.122675024 -0.046878185 -0.13007784 0.09279696 -0.07119205 -0.041413672 -0.13787456 0.053229094
-0.056487035 0.1022924 -0.021732403 0.051046155 -0.015275017 0.013214412 -0.087589785 0.056397803
0.091587774 -0.042486895 -0.0017686804 0.10271275 -0.030737912 -0.0014591503 -0.097136036 -0.0511148
-0.00040819292 0.058528624 0.025445364 0.08524569 0.059612278 -0.0031156216 0.053587887 -0.03595658
-0.05693753 0.01794132 0.061130438 -0.033195287 0.0014123733 -0.017621258 0.064748794 -0.05063057
-0.068579875 0.019089352 0.042114723 -0.045060486 0.11858129 -0.013320553 -0.0041321088 -0.100878984
-0.0021505868 -0.09281152 -0.09910056 -0.04961375 0.030574247 0.033060294 0.11731247 -0.09988974
0.07009391 0.053494703 -0.19896297 -0.023701027 0.06465708 0.016793821 -0.027813762 0.060989466
-0.00914141 0.009751846 0.005904054 0.063591145 0.008892758 0.043160394 0.056291223 0.07994544
0.078024335 0.08829345 -0.047464415 0.03370338 0.08760508 -0.13975425 -0.10497725 -0.07630799
0.0073057306 -0.0016195844 -0.09586733 0.04523804 -0.09470593 -0.0982552 0.06242398 0.041545447
-0.032161318 -0.013822904 -0.046571653 0.043558452 -0.104302466 -0.015638525 0.054278098 0.030797161
-0.048995875 0.0028113592 -0.067890406 -0.0018124578 -0.120540805 -0.1382128 -0.051306766 -0.10275255
-0.10294555 -0.14772785 -0.064461395 -0.062192593 0.033142235 -0.026195774 -0.12289736 -0.17032233
0.07517766 -0.10402958 0.007964494 0.009801347 -0.004920943 0.066061765 -0.06306962 0.05605416
00000000: 9000 713d ae46 db3d 5335 93bc 5d1d 383b
00000010: d20d 963d 6c42 8fbd 8bc3 81bd 6c1d 9f3d
00000020: e92e 1a3c 89e5 4d3d 3a31 df3d c7c9 303c
00000030: 9b56 7bbc 7c2c 2b3c 76ea 80bd 5e65 383d
00000040: b1bb d83d 0151 ab3d 4602 48bd e0ae 52bd
00000050: fcbe d63c 4409 233d d67e 75bd e032 133e
00000060: ccc1 a23d f6a8 fabc 4f39 fa3d 2dd4 503e
00000070: 6f6d 163d f118 47bd 7d6b 873d 55d4 e63d
00000080: 128e ac3d 61e1 b63d 16a9 51bd bef4 4bbd
00000090: b551 c83d 2659 12bc 853e 0a3c b3d1 ce3b
000000a0: 8d81 ab3c 1104 ed3d f947 a93d 7155 db3d
000000b0: e637 c53d 812a a9bd 6e12 113d a920 2f3d
000000c0: 1809 5bbc 3df6 96bd 7095 9ebd bc85 77bd
000000d0: 378d 66bd 3951 7dbd de45 89bd 0ab0 a43d
000000e0: b22e 003c 0f54 e53b 4354 c03d a0ca b73c
000000f0: 536b 93bd 417a 313e bfa9 623d 047c 0e3d
00000100: 3e7f edba b3a7 273d a260 38bd 728c c5bd
00000110: 77dd cabc d4cc 64bd e5e3 de3d dc6d eb3d
00000120: df20 e7bd 58e6 603d e95e 6ebd ef33 2d3e
00000130: adc0 063d 53b1 c63d 8bf3 383d 587c 7cbd
00000140: 9965 7c3d 6a3e a3bd 9f9f 613d aa8a 1e3e
00000150: e56c 40bc 4596 cf3d a646 90bc f1a0 043e
00000160: ebed 1f3c 1abf 323c ee33 d8bd 6290 6bbd
00000170: e18d 593d f40b af3d 71e1 003d 6b5e 1abc
00000180: e69a 3b3e 32ac 8cbb 2588 cc3d 15d1 4b3d
00000190: bdff 09bd 470c a1bd 53bb 7bbd 19d1 a5bc
000001a0: 3ff4 a93d b510 3dbd 5aaf bd3d df6a 9f3d
000001b0: 0266 f23d f659 2d3d 4dc2 93bd ec0a 8bbd
000001c0: 68ee 2f3c 5367 a23c 0d4c ca3d aa00 d9bc
000001d0: 91fd 0ebd 754e 46bd 34fc c13d 7b37 723d
000001e0: aad5 343d 2313 553c 32eb babd a652 8c3d
000001f0: 2824 78bd b7e7 c9bd 32b5 a6bc 4853 a8bd
00000200: 3489 053c 188e ffbd 788f b1bc 3e8b 9dbd
00000210: 61cc 5bbd fac9 a5bd d64d d2bd 1e50 fe3c
00000220: 0b3d fb3d 5703 40bd 2033 05be 550c be3d
00000230: 23cd 91bd 62a1 29bd fd2e 0dbe c006 5a3d
00000240: f35e 67bd ae7e d13d 2708 b2bc c615 513d
00000250: 1144 7abc 4381 583c 4662 b3bd 6201 673d
00000260: 5f92 bb3d bd06 2ebd 11d3 e7ba 105b d23d
00000270: 13ce fbbc f640 bfba 42ef c6bd c15d 51bd
00000280: ba02 d6b9 b6bb 6f3d cc72 d03c 4b95 ae3d
00000290: 012c 743d 752f 4cbb f97e 5b3d 3547 13bd
000002a0: 5437 69bd adf9 923c e963 7a3d c8f7 07bd
000002b0: 621f b93a 755a 90bc 049b 843d 0062 4fbd
000002c0: 9b73 8cbd 4661 9c3c 7d80 2c3d 5891 38bd
000002d0: bfda f23d 733e 5abc a466 87bb a499 cebd
000002e0: dcf0 0cbb f713 bebd 3cf5 cabd ca37 4bbd
000002f0: d876 fa3c 3b6a 073d 8541 f03d fe92 ccbd
00000300: 658d 8f3d 431d 5b3d f3bc 4bbe a828 c2bc
00000310: ee6a 843d 3293 893c b0d9 e3bc 17d0 793d
00000320: dac5 15bc 35c6 1f3c cb76 c13b 133c 823d
00000330: eeb2 113c f4c8 303d a091 663d 6fba a33d
00000340: 39cb 9f3d 32d3 b43d 0c6a 42bd 8e0c 0a3d
00000350: 4b6a b33d bd1b 0fbe 50fe d6bd 5d47 9cbd
00000360: e964 ef3b 3c48 d4ba 1756 c4bd 864b 393d
00000370: 2ff5 c1bd 063a c9bd 4ab0 7f3d 8f2b 2a3d
00000380: 96bb 03bd 7679 62bc ebc1 3ebd 596a 323d
00000390: 889c d5bd 5d1c 80bc b652 5e3d 544a fc3c
000003a0: e6af 48bd c83e 383b 200a 8bbd fe8f edba
000003b0: 19de f6bd a887 0dbe 0b27 52bd ee6f d2bd
000003c0: 1ed5 d2bd f845 17be 5604 84bd a9bd 7ebd
000003d0: 27c0 073d 8598 d6bc 9cb1 fbbd fa68 2ebe
000003e0: bff6 993d 760d d5bd 827d 023c d495 203c
000003f0: dd3f a1bb 644b 873d a52a 81bd 0c99 653d

aggregator.fc_in.bias f4 [128]
0.041753065 0.035959154 0.056065578 -0.013682753 0.07601097 0.010911651 -0.027401837 0.0077668964
-0.05879179 -0.0036947592 -0.05333458 -0.06398642 0.0085482 0.061352152 0.0066088485 0.010298609
-0.022652349 -0.026167152 0.05634088 -0.062739335 -0.032182448 -0.042579487 -0.04219478 0.014697775
-0.070834495 0.016540088 -0.07353991 0.055977203 -0.10466485 0.07365211 0.11579691 -0.060746722
0.05187294 0.0011661034 -0.097706504 0.081933044 -0.0524276 -0.029806195 -0.058764946 -0.06336259
0.09387597 -0.08043276 -0.11063969 -0.03418327 0.02176319 -0.06871506 -0.043144107 -0.008826338
-0.0841659 -0.04569012 0.01409327 -0.07014617 -0.033201262 0.07013095 0.04406954 0.020113787
-0.09446652 0.046855602 -0.04075841 0.07548981 -0.025073135 0.050064318 -0.034018658 0.0657407
0.020909106 0.08294546 -0.012704484 0.031746425 0.06626775 -0.06820031 -0.03764831 0.112107076
0.015730843 -0.04270074 -0.048548825 -0.06345066 -0.007262122 0.022496635 -0.009627681 0.03061104
-0.04492531 0.060479637 -0.110556565 0.07310444 -0.11124086 -0.079943515 -0.09300118 0.015411764
-0.06534013 -0.087912284 0.010300858 0.023947109 0.09240765 -0.01516221 -0.029987283 -0.10066751
0.06512158 -0.0880976 0.076861344 -0.086046964 0.039024867 -0.057870153 -0.062525876 0.018026644
0.0752025 -0.055291027 0.010044444 -0.0516231 -0.02116388 0.082667045 0.07168752 0.019133281
0.05532651 -0.036531117 -0.031132577 -0.09134199 -0.07602883 0.005830115 -0.033803836 0.05027512
0.04080154 -0.0037062955 -0.062612355 0.018853152 -0.023296148 0.04915918 0.08800019 -0.027338685
00000000: 4305 2b3d e849 133d 05a5 653d a02d 60bc
00000010: a4ab 9b3d c8c6 323c d179 e0bc 7381 fe3b
00000020: a9cf 70bd c623 72bb 5c75 5abd 500b 83bd
00000030: c00d 0c3c 654c 7b3d 0a8f d83b 7fbb 283c
00000040: 6b91 b9bc 7f5c d6bc b2c5 663d 7b7d 80bd
00000050: bed1 03bd d467 2ebd 6fd4 2cbd f0ce 703c
00000060: ad11 91bd 147f 873c 189c 96bd 5a48 653d
00000070: 865a d6bd ebd6 963d ee26 ed3d 8ed1 78bd
00000080: b878 543d f0d7 983a 591a c8bd 83cc a73d
00000090: 53be 56bd 1f2c f4bc 83b3 70bd 3fc4 81bd
000000a0: 0b42 c03d eeb9 a4bd 1097 e2bd c203 0cbd
000000b0: b848 b23c 7bba 8cbd e0b7 30bd 589c 10bc
000000c0: 2c5f acbd 9025 3bbd 75e7 663c cca8 8fbd
000000d0: 0cfe 07bd d1a0 8f3d 4382 343d abc5 a43c
000000e0: aa77 c1bd a9eb 3f3d 4af2 26bd 679a 9a3d
000000f0: 2d66 cdbc 3e10 4d3d 2657 0bbd 0fa3 863d
00000100: 9349 ab3c 4fdf a93d 7826 50bc 8a08 023d
00000110: 63b7 873d 9bac 8bbd 1d35 1abd 6598 e53d
00000120: f8dd 803c f9e6 2ebd 22db 46bd 6bf2 81bd
00000130: 18f7 edbb dd4a b83c 6cbd 1dbc 01c4 fa3c
00000140: 9a03 38bd 7fb9 773d 7b6b e2bd c8b7 953d
00000150: 3fd2 e3bd 6db9 a3bd 6777 bebd a081 7c3c
00000160: 0cd1 85bd 5b0b b4bd eec4 283c ba2c c43c
00000170: 3940 bd3d eb6a 78bc e4a7 f5bc c42a cebd
00000180: 775e 853d 846c b4bd 7b69 9d3d 6439 b0bd
00000190: 8ad8 1f3d 4109 6dbd 910d 80bd 9dac 933c
000001a0: c503 9a3d d878 62bd 7491 243c be72 53bd
000001b0: e05f adbc 574d a93d e8d0 923d 66bd 9c3c
000001c0: 0d9e 623d a7a1 15bd bf09 ffbc 8211 bbbd
000001d0: 01b5 9bbd 8d0a bf3b e475 0abd 49ed 4d3d
000001e0: 841f 273d 52e5 72bb e83a 80bd ed71 9a3c
000001f0: 90d7 bebc 235b 493d 7239 b43d 61f5 dfbc

aggregator.mha.in_proj_weight f4 [384, 128]
0.021712363 -0.030315777 0.082882665 0.02027419 -0.0315089 -0.067271076 -0.06323951 0.024747776
-0.008624073 0.077842675 0.060915705 -0.07543878 0.0022734615 -0.082918555 0.10019037 -0.053275283
-0.09930165 -0.02183181 -0.008034918 0.08041423 -0.042891167 0.04154126 -0.07359957 0.04934389
0.020109344 -0.029122522 -0.093521565 -0.08069133 0.06278891 0.043370347 -0.10263122 0.054934025
-0.058193825 0.025898881 -0.10807919 -0.03263852 0.09385607 -0.103691 0.048321307 0.0778004
0.099395975 -0.010576993 -0.054927006 0.009727368 0.07513021 0.09817515 -0.037067417 -0.060393706
0.016704971 0.09724478 -0.07426722 0.08734813 0.070987746 0.007749284 0.00807211 0.043330006
-0.051599417 -0.078660876 -0.058908273 -0.008335329 -0.07641067 -0.05394348 -0.02239913 -0.06690808
0.09531934 -0.08929667 -0.05511535 0.010905149 0.024484375 0.030079542 0.0065533975 0.056967586
0.044704273 0.023672238 0.09851633 0.07580412 -0.052671302 0.10527428 0.015856765 0.0525026
0.030184586 -0.040733628 0.02858549 -0.023713792 0.08199184 0.039419804 0.07818593 -0.041412808
-0.069051705 0.067712225 0.066537805 0.079562545 -0.018667867 0.051414814 -0.011833558 -0.09061638
0.08084279 0.049820714 -0.00024014512 -0.055156402 0.07527545 0.0512537 0.07721243 0.07639778
0.06412196 0.060903765 -0.105778925 -0.058874555 -0.066979416 0.0026628377 -0.024765585 0.021389835
0.044165153 0.026167985 -0.044442102 -0.08894101 0.019054623 0.10464213 0.08489194 0.036122102
-0.075241745 -0.06065193 -0.09964575 0.041753132 -0.052209347 0.03752003 -0.065491445 0.072134815
0.061200537 -0.039643575 -0.080476426 0.08403367 0.057746597 0.05517234 0.00046763066 0.09877333
0.087912366 -0.032907456 0.10249161 0.075147785 0.01818804 0.01856948 -0.072174855 0.03071145
0.105360836 0.05596584 0.07675585 0.056415908 -0.04413005 -0.011391285 -0.09947072 0.07683668
-0.05876618 -0.010743568 -0.101964325 0.01911858 -0.038352553 -0.103108756 -0.0106440205 0.038295656
0.016150014 0.08002379 0.009624336 -0.09252908 0.08095147 0.038708106 -0.08207347 0.0007803523
0.016575305 0.093778364 0.05252225 0.08328478 0.08563183 -0.0705415 0.023945123 0.07403368
0.009934644 0.09361066 0.09314813 0.07149022 0.1033498 0.070241615 0.03868124 0.10701655
-0.033813708 0.012898422 0.03892391 -0.009092762 -0.022407183 0.0041528884 -0.08034436 -0.069394685
-0.08759128 -0.10736046 -0.005075219 -0.06870718 6.749202e-05 -0.024678295 -0.07359423 0.101643085
-0.043325126 0.0703661 -0.024734857 -0.033889834 -0.06272739 0.012915624 0.057214558 0.012583429
0.08296567 -0.016101144 -0.10153227 -0.034188993 -0.07383006 -0.021418482 0.02306174 0.016185554
-0.104615815 0.06563801 -0.07529782 -0.033061616 -0.050435353 0.099607356 -0.08420667 0.09184793
-0.010564011 -0.078280136 -0.053157736 -0.08644551 -0.08080525 0.028130764 0.0933358 0.08922861
-0.074855246 -0.076642595 0.06698192 0.10542449 -0.07949614 -0.015204455 -0.07619015 0.06450885
0.08443053 -0.016323468 0.07539656 -0.102865055 0.061701916 0.07551985 0.063258685 0.07758109
-0.051096067 -0.047127277 0.06372474 -0.02532542 0.045221396 0.10079777 -0.04412956 0.0999729
00000000: 20de b13c cb58 f8bc 63be a93d 0f16 a63c
00000010: 7a0f 01bd 6bc5 89bd b783 81bd d9bb ca3c
00000020: fc4b 0dbc fb6b 9f3d bf82 793d a67f 9abd
00000030: 5bfe 143b 34d1 a9bd 9c30 cd3d 2f37 5abd
00000040: aa5e cbbd a0d8 b2bc e4a4 03bc 37b0 a43d
00000050: a6ae 2fbd 2b27 2a3d 5fbb 96bd d21c 4a3d
00000060: 5abc a43c 5b92 eebc 3c88 bfbd 7f41 a5bd
00000070: 7997 803d 1ba5 313d 5130 d2bd 8002 613d
00000080: a65c 6ebd e429 d43c 9f58 ddbd f8af 05bd
00000090: 9c37 c03d f25b d4bd 90ec 453d d155 9f3d
000000a0: 1e90 cb3d 204b 2dbc 24fb 60bd 8a5f 1f3c
000000b0: dedd 993d 0e10 c93d 01d4 17bd 645f 77bd
000000c0: ddd8 883c 4528 c73d 6a19 98bd 94e3 b23d
000000d0: 0662 913d b5ed fd3b e240 043c ce7a 313d
000000e0: e959 53bd f418 a1bd cd49 71bd e790 08bc
000000f0: 337d 9cbd d7f3 5cbd 617e b7bc 1a07 89bd
00000100: c936 c33d 2ce1 b6bd a2c0 61bd 83ab 323c
00000110: 7593 c83c 5f69 f63c e2bd d63b d856 693d
00000120: d41b 373d 48ec c13c eec2 c93d 313f 9b3d
00000130: ddbd 57bd 0b9a d73d 0ce6 813c f70c 573d
00000140: aa45 f73c 4ed8 26bd 1e2c ea3c 6d43 c2bc
00000150: 56eb a73d a976 213d f21f a03d 7aa0 29bd
00000160: fb6a 8dbd b5ac 8a3d f944 883d b0f1 a23d
00000170: 5bed 98bc 5798 523d 8ae1 41bc 1595 b9bd
00000180: e890 a53d ce10 4c3d 77cf 7bb9 aeeb 61bd
00000190: 042a 9a3d 66ef 513d 8d21 9e3d 7076 9c3d
000001a0: 6052 833d 3a76 793d 9fa2 d8bd 7226 71bd
000001b0: 812c 89bd 0183 2e3b 32e1 cabc bc39 af3c
000001c0: 85e6 343d 3e5e d63c ec08 36bd b426 b6bd
000001d0: 7118 9c3c 9d4e d63d d3db ad3d c5f4 133d
000001e0: 5818 9abd 286e 78bd 1213 ccbd 5505 2b3d
000001f0: 78d9 55bd 9aae 193d 6120 86bd 6bbb 933d
00000200: 6aad 7a3d 4d61 22bd d3d0 a4bd d819 ac3d
00000210: b287 6c3d 64fc 613d 532c f539 ac49 ca3d
00000220: 660b b43d f8c9 06bd 1fe7 d13d 15e7 993d
00000230: 16ff 943c 061f 983c 69d0 93bd 9496 fb3c
00000240: 6cc7 d73d 703c 653d 2c32 9d3d 5e14 673d
00000250: b6c1 34bd 83a2 3abc 4eb7 cbbd 8d5c 9d3d
00000260: ceb4 70bd ca05 30bc acd2 d0bd 919e 9c3c
00000270: 9117 1dbd af2a d3bd 4264 2ebc e8db 1c3d
00000280: 094d 843c 83e3 a33d 64af 1d3c e37f bdbd
00000290: e2c9 a53d 648c 1e3d 2316 a8bd 8e90 4c3a
000002a0: efc8 873c df0e c03d 9221 573d 3691 aa3d
000002b0: be5f af3d 1078 90bd 9028 c43c f89e 973d
000002c0: ebc4 223c f2b6 bf3d 72c4 be3d 7769 923d
000002d0: 0fa9 d33d d6da 8f3d 3870 1e3d 7e2b db3d
000002e0: 3e80 0abd e753 533c ae6e 1f3d cff9 14bc
000002f0: 458f b7bc f414 883b 958b a4bd cd1e 8ebd
00000300: 0f63 b3bd cddf dbbd 064e a6bb 5ab6 8cbd
00000310: 818a 8d38 232a cabc 92b8 96bd 402a d03d
00000320: b075 31bd 1a1c 903d c1a0 cabc 11d0 0abd
00000330: 3877 80bd 0e9c 533c d059 6a3d ba2a 4e3c
00000340: e8e9 a93d 8ce6 83bc 27f0 cfbd c209 0cbd
00000350: 3734 97bd d075 afbc f9eb bc3c 9197 843c
00000360: d140 d6bd 396d 863d be35 9abd 9e6b 07bd
00000370: 4d95 4ebd f1fe cb3d 8c74 acbd c41a bc3d
00000380: ac14 2dbc 5651 a0bd edbb 59bd 580a b1bd
00000390: 397d a5bd 7d72 e63c d726 bf3d 7dbd b63d
000003a0: b54d 99bd cbf6 9cbd d12d 893d cce8 d73d
000003b0: dfce a2bd 1b1c 79bc 9509 9cbd 371d 843d
000003c0: eae9 ac3d cbb8 85bc 8369 9a3d eaaa d2bd
000003d0: 26bb 7c3d 27aa 9a3d c58d 813d d6e2 9e3d
000003e0: 1c4a 51bd 8808 41bd 1e82 823d 4177 cfbc
000003f0: 123a 393d 106f ce3d 33c1 34bd 97be cc3d

aggregator.mha.in_proj_bias f4 [384]
0.0 0.0 0.0 0.0 2.3592719e-09 -4.5022706e-09 -5.0520246e-09 -3.3687941e-09
0.0 0.0 0.0 0.0 0.0 0.0 0.0 0.0
0.0 0.0 0.0 0.0 0.0 0.0 0.0 0.0
0.0 0.0 0.0 0.0 0.0 0.0 0.0 0.0
0.0 0.0 0.0 0.0 0.0 0.0 0.0 0.0
0.0 0.0 0.0 0.0 0.0 0.0 0.0 0.0
0.0 0.0 0.0 0.0 0.0 0.0 0.0 0.0
0.0 0.0 0.0 0.0 0.0 0.0 0.0 0.0
0.0 0.0 0.0 0.0 0.0 0.0 0.0 0.0
0.0 0.0 0.0 0.0 0.0 0.0 0.0 0.0
0.022943141 -0.022937875 -0.02291325 -0.022908995 0.0 0.0 0.0 0.0
0.0 0.0 0.0 0.0 0.0 0.0 0.0 0.0
0.0 0.0 0.0 0.0 0.0 0.0 0.0 0.0
0.0 0.0 0.0 0.0 0.0 0.0 0.0 0.0
0.0 0.0 0.0 0.0 -2.2314553e-31 -9.3614783e-32 1.1115006e-32 1.9314815e-31
0.0 0.0 0.0 0.0 0.0 0.0 0.0 0.0
0.0 0.0 0.0 0.0 -1.5295753e-19 -2.7431713e-20 -1.881482e-19 2.1169867e-19
0.0 0.0 0.0 0.0 0.0 0.0 0.0 0.0
0.0 0.0 0.0 0.0 0.0 0.0 0.0 0.0
0.0 0.0 0.0 0.0 0.0 0.0 0.0 0.0
0.0 0.0 0.0 0.0 0.0 0.0 0.0 0.0
0.0 0.0 0.0 0.0 0.0 0.0 0.0 0.0
0.0 0.0 0.0 0.0 0.0 0.0 0.0 0.0
0.0 0.0 0.0 0.0 0.0 0.0 0.0 0.0
0.0 0.0 0.0 0.0 0.0 0.0 0.0 0.0
0.0 0.0 0.0 0.0 0.0 0.0 0.0 0.0
0.022924365 0.022927893 -0.022847429 0.022875164 0.0 0.0 0.0 0.0
0.0 0.0 0.0 0.0 0.0 0.0 0.0 0.0
0.0 0.0 0.0 0.0 0.0 0.0 0.0 0.0
0.0 0.0 0.0 0.0 0.0 0.0 0.0 0.0
0.0 0.0 0.0 0.0 0.0 0.0 0.0 0.0
0.0 0.0 0.0 0.0 0.0 0.0 0.0 0.0
00000000: 0000 0000 0000 0000 0000 0000 0000 0000
00000010: c020 2231 64b2 9ab1 1496 adb1 7480 67b1
00000020: 0000 0000 0000 0000 0000 0000 0000 0000
00000030: 0000 0000 0000 0000 0000 0000 0000 0000
00000040: 0000 0000 0000 0000 0000 0000 0000 0000
00000050: 0000 0000 0000 0000 0000 0000 0000 0000
00000060: 0000 0000 0000 0000 0000 0000 0000 0000
00000070: 0000 0000 0000 0000 0000 0000 0000 0000
00000080: 0000 0000 0000 0000 0000 0000 0000 0000
00000090: 0000 0000 0000 0000 0000 0000 0000 0000
000000a0: 0000 0000 0000 0000 0000 0000 0000 0000
000000b0: 0000 0000 0000 0000 0000 0000 0000 0000
000000c0: 0000 0000 0000 0000 0000 0000 0000 0000
000000d0: 0000 0000 0000 0000 0000 0000 0000 0000
000000e0: 0000 0000 0000 0000 0000 0000 0000 0000
000000f0: 0000 0000 0000 0000 0000 0000 0000 0000
00000100: 0000 0000 0000 0000 0000 0000 0000 0000
00000110: 0000 0000 0000 0000 0000 0000 0000 0000
00000120: 0000 0000 0000 0000 0000 0000 0000 0000
00000130: 0000 0000 0000 0000 0000 0000 0000 0000
00000140: 41f3 bb3c 36e8 bbbc 91b4 bbbc a5ab bbbc
00000150: 0000 0000 0000 0000 0000 0000 0000 0000
00000160: 0000 0000 0000 0000 0000 0000 0000 0000
00000170: 0000 0000 0000 0000 0000 0000 0000 0000
00000180: 0000 0000 0000 0000 0000 0000 0000 0000
00000190: 0000 0000 0000 0000 0000 0000 0000 0000
000001a0: 0000 0000 0000 0000 0000 0000 0000 0000
000001b0: 0000 0000 0000 0000 0000 0000 0000 0000
000001c0: 0000 0000 0000 0000 0000 0000 0000 0000
000001d0: 69d4 908c b209 f38b 82d9 660a 7bb8 7a0c
000001e0: 0000 0000 0000 0000 0000 0000 0000 0000
000001f0: 0000 0000 0000 0000 0000 0000 0000 0000
00000200: 0000 0000 0000 0000 0000 0000 0000 0000
00000210: 9494 34a0 e88a 019f 4e20 5ea0 ffed 7920
00000220: 0000 0000 0000 0000 0000 0000 0000 0000
00000230: 0000 0000 0000 0000 0000 0000 0000 0000
00000240: 0000 0000 0000 0000 0000 0000 0000 0000
00000250: 0000 0000 0000 0000 0000 0000 0000 0000
00000260: 0000 0000 0000 0000 0000 0000 0000 0000
00000270: 0000 0000 0000 0000 0000 0000 0000 0000
00000280: 0000 0000 0000 0000 0000 0000 0000 0000
00000290: 0000 0000 0000 0000 0000 0000 0000 0000
000002a0: 0000 0000 0000 0000 0000 0000 0000 0000
000002b0: 0000 0000 0000 0000 0000 0000 0000 0000
000002c0: 0000 0000 0000 0000 0000 0000 0000 0000
000002d0: 0000 0000 0000 0000 0000 0000 0000 0000
000002e0: 0000 0000 0000 0000 0000 0000 0000 0000
000002f0: 0000 0000 0000 0000 0000 0000 0000 0000
00000300: 0000 0000 0000 0000 0000 0000 0000 0000
00000310: 0000 0000 0000 0000 0000 0000 0000 0000
00000320: 0000 0000 0000 0000 0000 0000 0000 0000
00000330: 0000 0000 0000 0000 0000 0000 0000 0000
00000340: e1cb bb3c 47d3 bb3c 882a bbbc b264 bb3c
00000350: 0000 0000 0000 0000 0000 0000 0000 0000
00000360: 0000 0000 0000 0000 0000 0000 0000 0000
00000370: 0000 0000 0000 0000 0000 0000 0000 0000
00000380: 0000 0000 0000 0000 0000 0000 0000 0000
00000390: 0000 0000 0000 0000 0000 0000 0000 0000
000003a0: 0000 0000 0000 0000 0000 0000 0000 0000
000003b0: 0000 0000 0000 0000 0000 0000 0000 0000
000003c0: 0000 0000 0000 0000 0000 0000 0000 0000
000003d0: 0000 0000 0000 0000 0000 0000 0000 0000
000003e0: 0000 0000 0000 0000 0000 0000 0000 0000
000003f0: 0000 0000 0000 0000 0000 0000 0000 0000

aggregator.mha.out_proj.weight f4 [128, 128]
-0.032768883 -0.048770435 -0.0885095 0.14330116 0.011889544 0.06770108 -0.088030934 -0.03127353
-0.009928416 0.057455644 -0.038072325 -0.025406942 -0.039065845 0.094867945 0.059191246 0.02281063
-0.017167645 0.060115166 0.04570302 -0.036580104 -0.0072104083 -0.05663517 -0.031655226 0.029867226
-0.13356203 0.11775633 -0.063855596 -0.017677331 -0.0032360754 0.061217967 0.10896702 0.052794155
-0.028161151 -0.07459808 -0.04363856 0.06777437 0.10610015 0.14514206 0.06926084 -0.041672867
-0.05843996 -0.007600947 -0.012687813 -0.11383748 -0.041397993 -0.010113821 0.033514854 0.04947847
0.09009741 0.012457927 -0.07268276 -0.018550942 0.07606276 -0.08293082 0.004000111 -0.04168669
0.010909252 0.02538432 0.060726106 -0.03178304 -0.065499544 -0.0959371 -0.04021101 -0.0035864096
-0.0052247997 -0.035139956 0.0038086867 0.02219229 -0.03628538 0.013733779 0.054761637 -0.09321267
-0.043439962 -0.01057045 0.09269201 0.007118113 0.02991863 -0.030912189 -0.09006848 0.053073198
0.07216501 -0.082525216 -0.03249253 -0.06835889 0.058141947 -0.027010337 -0.028151037 -0.035489775
0.00778035 0.059631675 0.021014402 0.058738973 0.055462293 -0.02961263 -0.0928713 -0.09697218
-0.000793402 0.0989745 0.021103997 -0.05749366 0.011874813 -0.009727589 -0.030528996 -0.014178521
0.02076525 -0.00095646945 -0.085954465 0.06328155 -0.020280939 -0.055975318 -0.029292671 -0.041655105
0.0066178916 -0.0037809182 -0.057128336 -0.0024109094 0.058906663 0.05775919 0.021528404 0.00891215
0.06711088 0.06386941 0.052234102 -0.015310387 -0.039952837 0.043705817 0.0012476197 0.10286187
0.084607035 -0.09291342 -0.092245735 0.0019554333 -0.027175548 0.013647743 -0.08754161 0.05045941
-0.03685851 -0.06675841 -0.048292506 0.045532178 -0.014188654 0.019884536 0.093178056 -0.018637875
0.014722089 -0.004337242 -0.095955804 -0.018828984 -0.07972745 -0.03954328 -0.086994365 -0.025477182
-0.046939194 -0.03602528 -0.038645428 -0.023018755 0.09203252 -0.060842246 -0.061354354 0.029399494
0.07458934 -0.04728585 0.040828828 -0.0064508137 0.049094822 0.026456175 0.0039769704 -0.016460467
0.033623803 0.018841298 0.07423725 0.039326657 -0.0013644389 -0.0062070033 0.07061853 0.043001365
-0.016890382 0.02747673 -0.016958866 -0.021411333 -0.07198309 0.08955209 -0.074020416 -0.010865565
-0.045841344 -0.06148009 0.005451988 -0.012127278 0.059489112 0.06626503 0.018278698 0.040874034
0.062131252 0.016487941 -0.0092358105 -0.025380354 0.061345167 0.08298867 -0.031681728 -0.04182741
-0.044650592 0.013819659 -0.038555793 0.09161971 -0.036267076 -0.061172754 -0.07680652 0.024023518
-0.032809187 -0.0700172 -0.056879185 0.0024990456 0.020173175 -0.07126711 0.05084646 -0.06214076
-0.0519061 0.04470737 -0.07297994 0.0021885291 0.046196405 0.039181285 -0.060859643 -0.011971864
-0.050320774 -0.0049979263 -0.024931021 -0.015319815 0.03534056 -0.012140537 0.04103714 -0.044570398
0.06686022 0.08699411 0.029839242 -0.06766465 -0.034296807 -0.083384424 -0.011043829 -0.07617156
0.010799706 -0.07326322 -0.035287548 -0.07122256 -0.050760113 -0.034891937 -0.08751226 0.02141441
-0.08968715 -0.086398326 0.04772506 0.0018185615 0.017187033 -0.07897567 0.01038715 0.034571413
00000000: aa38 06bd 82c3 47bd 7844 b5bd 8abd 123e
00000010: 5dcc 423c dda6 8a3d 9049 b4bd ac18 00bd
00000020: ccaa 22bc 9c56 6b3d baf1 1bbd 3822 d0bc
00000030: 8203 20bd 204a c23d 8572 723d 5cdd ba3c
00000040: 29a3 8cbc 523b 763d 1733 3b3d 05d5 15bd
00000050: 4a45 ecbb 48fa 67bd e9a8 01bd 1dac f43c
00000060: 7cc4 08be 3b2a f13d b9c6 82bd 0dd0 90bc
00000070: 5614 54bb b1bf 7a3d 1a2a df3d af3e 583d
00000080: 37b2 e6bc e1c6 98bd 59be 32bd 4acd 8a3d
00000090: 094b d93d 1fa0 143e a1d8 8d3d 2bb1 2abd
000000a0: bd5e 6fbd 5d11 f9bb 8be0 4fbc a023 e9bd
000000b0: f190 29bd 71b4 25bc df46 093d f0a9 4a3d
000000c0: fe84 b83d 551c 4c3c b3da 94bd 25f8 97bc
000000d0: cbc6 9b3d a2d7 a9bd 5d13 833b aabf 2abd
000000e0: b8bc 323c c7f2 cf3c f0bb 783d ef2e 02bd
000000f0: a024 86bd ac7a c4bd 4db4 24bd f809 6bbb
00000100: cc34 abbb eaee 0fbd 299b 793b 9bcc b53c
00000110: fb9f 14bd a503 613c bd4d 603d 49e6 bebd
00000120: 1aee 31bd ae2f 2dbc 4fd5 bd3d 0f3f e93b
00000130: ea17 f53c 8f3b fdbc d375 b8bd 4863 593d
00000140: 40cb 933d fb02 a9bd e316 05bd bfff 8bbd
00000150: 4026 6e3d c844 ddbc 019d e6bc ba5d 11bd
00000160: 4ef2 fe3b 5840 743d 6526 ac3c 4798 703d
00000170: 6e2c 633d 3096 f2bc 4f33 bebd 5a99 c6bd
00000180: 4ffc 4fba 25b3 ca3d 4ae2 ac3c 797e 6bbd
00000190: 938e 423c 7760 1fbc f217 fabc 074d 68bc
000001a0: e31b aa3c 94bb 7aba e508 b0bd c299 813d
000001b0: 3624 a6bc 6046 65bd 2ff7 efbc 8b9e 2abd
000001c0: e6da d83b 48c9 77bb 67ff 69bd 5900 1ebb
000001d0: 1d48 713d e794 6c3d 565c b03c 4404 123c
000001e0: 6e71 893d f7cd 823d 6df3 553d 6bd8 7abc
000001f0: 96a5 23bd df04 333d 2c87 a33a 3ea9 d23d
00000200: 7446 ad3d 6449 bebd 55eb bcbd ba26 003b
00000210: 419f debc c89a 5f3c 0449 b3bd 87ae 4e3d
00000220: f3f8 16bd a2b8 88bd 5dce 45bd f37f 3a3d
00000230: 8777 68bc e5e4 a23c 23d4 be3d 75ae 98bc
00000240: eb34 713c 6c1f 8ebb 7a84 c4bd 3e3f 9abc
00000250: 2548 a3bd 22f8 21bd 1a2a b2bd 86b5 d0bc
00000260: 5043 40bd 3e8f 13bd ab4a 1ebd d491 bcbc
00000270: 8c7b bc3d b835 79bd b44e 7bbd 35d7 f03c
00000280: 4cc2 983d cfae 41bd 213c 273d 5961 d3bb
00000290: a717 493d 9fba d83c 3f51 823b 1ad8 86bc
000002a0: 1db9 093d 1159 9a3c b309 983d fd14 213d
000002b0: f9d6 b2ba 1e64 cbbb 73a0 903d 3322 303d
000002c0: b35d 8abc e116 e13c 52ed 8abc d266 afbc
000002d0: df6b 93bd 1667 b73d 0498 97bd 7c05 32bc
000002e0: 22c4 3bbd 8cd2 7bbd 97a6 b23b 7eb1 46bc
000002f0: dbaa 733d f6b5 873d 35bd 953c 886b 273d
00000300: 577d 7e3d b811 873c cc51 17bc 76ea cfbc
00000310: 1245 7b3d f7f5 a93d b3c4 01bd 3853 2bbd
00000320: 8ae3 36bd da6b 623c aeec 1dbd 1da3 bb3d
00000330: c98c 14bd 4890 7abd bd4c 9dbd f8cc c43c
00000340: ed62 06bd 2e65 8fbd 26fa 68bd 07c7 233b
00000350: 3742 a53c 7ef4 91bd 6144 503d 4f87 7ebd
00000360: 7e9b 54bd 131f 373d 8276 95bd 6d6d 0f3b
00000370: 7138 3d3d 8e7c 203d f647 79bd a325 44bc
00000380: 281d 4ebd a5c5 a3bb 243c ccbc f6ff 7abc
00000390: 43c1 103d 1ae9 46bc 8f16 283d 738f 36bd
000003a0: 03ee 883d f829 b23d 6d71 f43c c493 8abd
000003b0: cf7a 0cbd 74c5 aabd 2df1 34bc d6ff 9bbd
000003c0: 40f1 303c 070b 96bd ad89 10bd 22dd 91bd
000003d0: d6e9 4fbd d9ea 0ebd a139 b3bd 466d af3c
000003e0: e6ad b7bd 9bf1 b0bd 5a7b 433d cc5c ee3a
000003f0: d2cb 8c3c ffbd a1bd dd2e 2a3c c19a 0d3d

aggregator.mha.out_proj.bias f4 [128]
0.00014770075 -3.7198468e-05 -0.00035751198 -0.00014412573 -9.352472e-05 -0.00015025251 0.0002825042 -0.00036066782
3.1970194e-05 0.00018357213 0.00033868293 -0.00013129218 0.0004399652 -0.00010886739 0.0002127793 9.232292e-05
-8.890075e-05 -0.00029185682 0.00034782477 0.0004914142 0.0001818014 -9.0721216e-05 0.000108734464 2.693161e-07
0.00012607273 -0.00021034744 0.00031511375 -0.00016768531 -0.00037670197 -4.310215e-05 -0.00015905716 0.00051717984
0.00026071622 0.0006525989 -0.00034421962 -7.0699243e-06 -0.00029641567 0.0002240921 -0.00037002127 -0.00038010642
2.5190016e-06 3.845495e-05 0.0004226628 -6.0331768e-05 4.441219e-05 0.00030059327 -0.00015692 -0.00023777243
0.00044509285 -0.00020112071 2.5779424e-05 -0.00026501718 0.000112131886 -0.00013580274 0.000113630536 -5.4229615e-05
0.0002129585 0.00078386144 0.00017223506 0.00024210881 -2.1191836e-05 -0.00044074177 -0.00024299849 -7.7837256e-05
-0.0003030377 0.0004015293 -9.408484e-05 0.00019787478 -7.7195815e-05 -6.735423e-05 0.00021347593 -1.3324781e-05
0.000104062 0.0002578449 -0.0005813651 -0.00011526551 -5.724189e-05 0.00029249967 -0.00024419904 -0.0003457538
-0.00045843344 2.7172771e-05 0.0004414916 0.0005024487 -0.00020782555 0.00020451224 9.616594e-05 7.2622104e-05
0.0003987904 -3.7872152e-05 -7.5328535e-05 -7.386927e-05 -0.00014322146 -0.00042526075 -0.000111885536 -0.00012960267
7.248251e-05 0.00032809912 -0.0003530805 5.4470143e-05 0.00022588186 -0.00015524834 9.216124e-05 -0.00018253838
0.00011350046 -6.822085e-05 0.0003412536 3.5589812e-05 3.8988974e-06 -0.00026572982 -0.0002011331 1.0401654e-05
-0.00016547507 -0.00020952587 5.9317048e-05 2.8584036e-05 -0.00023882154 5.4957974e-05 0.00038926952 -0.00040046684
4.45721e-05 -0.00032107203 -0.00018038233 0.00040039184 0.00017095936 -7.835436e-05 -0.00043201516 -0.0004898099
00000000: 1ee0 1a39 8d05 1cb8 7270 bbb9 7520 17b9
00000010: b422 c4b8 1a8d 1db9 121d 9439 0418 bdb9
00000020: bc17 0638 457d 4039 4191 b139 7aab 09b9
00000030: 21ab e639 bc4f e4b8 821d 5f39 7e9d c138
00000040: 3a70 bab8 5c04 99b9 405c b639 40d2 003a
00000050: f1a1 3e39 9541 beb8 5f08 e438 8696 9034
00000060: 6432 0439 b690 5cb9 da35 a539 afd4 2fb9
00000070: 1580 c5b9 95c8 34b8 95c8 26b9 5a93 073a
00000080: bdb0 8839 2c13 2b3a 6078 b4b9 303a edb6
00000090: 3d68 9bb9 44fa 6a39 6aff c1b9 0549 c7b9
000000a0: 1e0c 2936 b04a 2138 d798 dd39 be0c 7db8
000000b0: 3a47 3a38 f298 9d39 e48a 24b9 8d52 79b9
000000c0: 5a5b e939 eee3 52b9 e440 d837 01f2 8ab9
000000d0: 5928 eb38 4566 0eb9 ee4c ee38 9b74 63b8
000000e0: 9d4d 5f39 0d7c 4d3a ff99 3439 97de 7d39
000000f0: 1fc5 b1b7 5c13 e7b9 69cd 7eb9 8f3c a3b8
00000100: 08e1 9eb9 5a84 d239 6a4f c5b8 9b7c 4f39
00000110: 30e4 a1b8 8740 8db8 82d8 5f39 808d 5fb7
00000120: dc3b da38 5b2f 8739 c066 18ba b3ba f1b8
00000130: 0317 70b8 a45a 9939 d707 80b9 4a46 b5b9
00000140: e559 f0b9 15f1 e337 0078 e739 c3b6 033a
00000150: bfeb 59b9 5672 5639 b2ac c938 b24c 9838
00000160: be14 d139 ead8 1eb8 b3f9 9db8 43ea 9ab8
00000170: b82d 16b9 88f5 deb9 17a4 eab8 f4e5 07b9
00000180: c001 9838 b804 ac39 aa1d b9b9 df76 6438
00000190: b3da 6c39 29ca 22b9 b046 c138 c667 3fb9
000001a0: 1807 ee38 ca11 8fb8 48ea b239 4546 1538
000001b0: 46d3 8236 a751 8bb9 41e7 52b9 c482 2e37
000001c0: 6083 2db9 2cb4 5bb9 32cb 7838 c0c7 ef37
000001d0: 2b6c 7ab9 ad82 6638 df16 cc39 c0f5 d1b9
000001e0: eef2 3a38 8f55 a8b9 0325 3db9 afeb d139
000001f0: 8e43 3339 2d52 a4b8 1880 e2b9 9666 00ba

aggregator.norm.weight f4 [128]
1.0135262 0.94083804 0.9801395 1.0120989 0.9900873 1.0055279 1.0121661 0.98760504
0.9593181 0.940489 0.9738917 0.9544584 0.97470456 0.9757871 1.0415442 0.99690497
1.0044188 1.006656 1.0254756 0.99147284 0.95903766 0.9570297 1.0090204 0.98285866
0.94720507 1.0464957 0.9521186 0.98687845 0.9659714 1.0001618 0.98467684 1.0099895
0.9675551 1.0398253 0.9717054 0.9778368 1.0033821 1.0222749 0.98631126 1.0191318
0.9287091 0.9724207 0.9734181 0.98927397 0.976611 1.0456694 0.97700393 0.9545978
1.0285462 0.9963391 0.98269147 0.95492303 1.0029051 0.9948356 1.008563 0.93146783
1.0305886 1.029781 1.0174943 1.0086082 0.9387881 1.0131397 0.9812249 0.93708074
1.0367643 1.0640085 0.98482454 1.0113105 0.9805567 0.96055585 0.941888 1.0013521
1.026125 0.99439377 1.0460647 1.073666 0.95168865 1.0020266 0.995135 1.0267717
0.9992223 0.97624654 0.9802948 1.0151072 1.0007422 0.9919276 0.9695183 0.9881341
1.0029408 0.9786048 1.0147878 0.97128564 0.9701345 1.0045402 0.9497952 1.0090201
0.97599506 0.95984846 1.0180327 0.97648656 0.9569955 0.96684873 0.986271 1.0052158
0.9936796 0.99354875 1.0298973 0.96150815 0.9704973 0.9719418 0.96684843 0.9566873
0.9771219 0.97346425 0.9408708 0.9565625 1.0023838 0.9784819 1.0077773 1.0154119
0.95903903 1.0227997 0.98064584 1.0092031 0.958531 1.0057787 1.007347 1.0208049
00000000: 3abb 813f c3da 703f 6cea 7a3f 758c 813f
00000010: 5c76 7d3f 23b5 803f a98e 813f afd3 7c3f
00000020: df95 753f e3c3 703f f750 793f 6357 743f
00000030: 3d86 793f 2fcd 793f 5251 853f 2a35 7f3f
00000040: cc90 803f 1bda 803f c942 833f 2ad1 7d3f
00000050: 7e83 753f e6ff 743f 9527 813f a09c 7b3f
00000060: 087c 723f 92f3 853f 0bbe 733f 11a4 7c3f
00000070: e749 773f 4d05 803f c813 7c3f 5647 813f
00000080: b1b1 773f ff18 853f afc1 783f 8353 7a3f
00000090: d36e 803f e7d9 823f e57e 7c3f e972 823f
000000a0: e1bf 6d3f 90f0 783f ee31 793f 0f41 7d3f
000000b0: 2e03 7a3f 7fd8 853f ee1c 7a3f 8560 743f
000000c0: 67a7 833f 1410 7f3f ab91 7b3f d675 743f
000000d0: 325f 803f 8cad 7e3f 9818 813f ad74 6e3f
000000e0: 54ea 833f ddcf 833f 413d 823f 131a 813f
000000f0: 6b54 703f 90ae 813f 8e31 7b3f 86e4 6f3f
00000100: b1b4 843f 6e31 883f 761d 7c3f 9f72 813f
00000110: c405 7b3f fde6 753f 921f 713f 4e2c 803f
00000120: 1058 833f 9790 7e3f 73e5 853f e36d 893f
00000130: dea1 733f 6842 803f 2bc1 7e3f 416d 833f
00000140: 08cd 7f3f 4beb 793f 9af4 7a3f 08ef 813f
00000150: 5218 803f f8ee 7d3f 5a32 783f 5bf6 7c3f
00000160: 5d60 803f d885 7a3f 91e4 813f 2da6 783f
00000170: bc5a 783f c694 803f c725 733f 9227 813f
00000180: d0da 793f a1b8 753f e54e 823f 06fb 793f
00000190: a8fd 743f 6683 773f 427c 7c3f e9aa 803f
000001a0: c961 7e3f 3659 7e3f add3 833f 6625 763f
000001b0: 8372 783f 2ed1 783f 6183 773f 75e9 743f
000001c0: a924 7a3f f434 793f e9dc 703f 48e1 743f
000001d0: 1d4e 803f ca7d 7a3f d9fe 803f 04f9 813f
000001e0: 9583 753f 1aeb 823f 9b0b 7b3f 912d 813f
000001f0: 4a62 753f 5bbd 803f bff0 803f bca9 823f

aggregator.norm.bias f4 [128]
0.007484381 -0.0121083865 -0.021634964 -0.0021157803 -0.010463054 -0.015915245 0.019816965 0.039614797
0.016356315 -0.040383816 0.010586269 -0.022905145 -0.015085955 0.022131426 0.011530135 -0.011848754
-0.0046236906 0.0124893505 -0.023033164 -0.0056048566 -0.022315748 -0.020429853 -0.00016513305 -0.028640132
0.013587239 0.021084309 -0.006755127 0.0060697515 -0.00717554 -0.02687626 0.007823657 -0.0051717204
0.008578642 -0.006997616 -0.0062086224 -0.026602685 -0.03080504 0.028304597 0.028102286 0.021162916
-0.0042698635 0.027982298 -0.014560273 -0.012150134 -0.018540978 -0.023269057 0.0047923313 0.008305473
0.020368237 0.018249942 0.011209552 -0.01170847 -0.0007357687 -0.024981959 -0.032228936 -0.0034756528
-0.009516031 0.0033771887 0.003867797 0.013452991 -0.030381458 -0.013792112 0.011111992 -0.003613589
0.033734687 -0.0036439104 0.0032760282 -0.014823691 0.010865848 0.027950637 -0.008868985 -0.0051099225
-0.009295122 0.013529678 0.0011158006 0.04324223 -0.005326617 -0.04673696 -0.016883077 0.044401146
-0.0037894605 0.03367832 -0.017535342 -0.026670165 0.026377758 -0.0327647 0.002448167 0.014218276
0.0040316335 -0.0023181925 -0.0035693282 -0.02063838 -0.017549034 -0.015423478 0.020094227 -0.0147859845
0.018831233 0.027296381 0.036454 -0.0010130984 0.010656956 0.028424315 0.019967055 0.015614105
-0.000466078 0.0100092655 -0.027672868 0.016193053 0.02105109 0.013669909 0.0052162874 0.0021903256
-0.029669607 -0.003092284 -0.0045142765 -0.03237303 -0.017763657 -0.008261495 -0.010672918 0.016115045
-0.00030512118 -0.022510098 -0.03727029 0.013677502 -0.0024024858 -0.020657212 -0.016310507 -0.0204388
00000000: 8a3f f53b 4162 46bc cf3b b1bc e7a8 0abb
00000010: 3b6d 2bbc b060 82bc 3057 a23c 2043 223d
00000020: aefd 853c 8069 25bd 0872 2d3c 92a3 bbbc
00000030: 152b 77bc f74c b53c e4e8 3c3c 4721 42bc
00000040: 5482 97bb 22a0 4c3c 0cb0 bcbc f2a8 b7bb
00000050: 84cf b6bc 825c a7bc 9127 2db9 b69e eabc
00000060: 039d 5e3c 00b9 ac3c 1d5a ddbb c4e4 c63b
00000070: cb20 ebbb 9a2b dcbc cc2e 003c 8977 a9bb
00000080: 6f8d 0c3c 424c e5bb b371 cbbb e0ed d9bc
00000090: da5a fcbc 0bdf e73c c436 e63c da5d ad3c
000000a0: 36ea 8bbb 223b e53c 368e 6ebc 5b11 47bc
000000b0: 40e3 97bc c09e bebc fd08 9d3b ae13 083c
000000c0: 4adb a63c e780 953c 45a8 373c e2d4 3fbc
000000d0: 9ae0 40ba f7a6 ccbc 7d02 04bd c7c7 63bb
000000e0: 20e9 1bbc d353 5d3b de7a 7d3b ef69 5c3c
000000f0: 89e2 f8bc 4ff8 61bc 130f 363c f7d1 6cbb
00000100: 622d 0a3d acce 6ebb a2b2 563b 11df 72bc
00000110: ab06 323c bcf8 e43c 384f 11bc 2371 a7bb
00000120: 914a 18bc 95ab 5d3c 0e40 923a c41e 313d
00000130: e78a aebb 416f 3fbd 614e 8abc fadd 353d
00000140: 9958 78bb 47f2 093d 47a6 8fbc 647b dabc
00000150: 2b16 d83c 4734 06bd 6d71 203b c6f3 683c
00000160: cb1b 843b d1ec 17bb 64eb 69bb d211 a9bc
00000170: fec2 8fbc c1b2 7cbc a69c a43c ea40 72bc
00000180: f543 9a3c a99c df3c ca50 153d f1c9 84ba
00000190: 839a 2e3c 1cda e83c f391 a33c 4ed2 7f3c
000001a0: ee5b f4b9 e7fd 233c 36b2 e2bc 4ba7 843c
000001b0: 5673 ac3c c1f7 5f3c 64ed aa3b 918b 0f3b
000001c0: ad0d f3bc eba7 4abb 7fec 93bb 9599 04bd
000001d0: 1785 91bc 395b 07bc 76dd 2ebc b303 843c
000001e0: acf8 9fb9 1967 b8bc bba8 18bd 9a17 603c
000001f0: 0673 1dbb 5039 a9bc 9d9d 85bc 456f a7bc

aggregator.fc_out.weight f4 [128, 128]
-0.06744875 0.019220183 -0.04259632 0.042192377 -0.06320388 0.0006870309 -0.10453811 0.046600726
-0.07620934 0.032761037 0.033728376 0.028813815 -0.023169084 0.03695319 -0.03939613 0.03827535
0.08018023 0.08337863 0.014509539 -0.01821537 -0.08225313 -0.06576123 0.02178261 0.07455822
0.023791872 0.057694837 0.007599535 -0.009011269 0.015372688 -0.1268185 0.0030014466 0.066194266
0.057559326 -0.12095844 0.008203168 -0.09894663 0.032735832 0.10571789 0.10667771 0.05352335
0.058595467 -0.024542602 0.023087725 0.07195843 0.048025653 -0.12334082 0.03019142 -0.058763213
-0.08596344 0.07374878 -0.03364272 -0.042080406 -0.034826826 0.06368596 -0.030216068 0.12143434
-0.040464852 0.047894526 -0.0997993 -0.018929217 0.008538635 0.027456822 0.020739036 0.02073773
0.0018627385 0.052575614 0.09979367 -0.09070832 -0.0009209109 0.013808073 0.0073136124 0.07694341
0.020895004 0.072208434 -0.023865571 -0.00087261427 0.019515187 0.028628634 -0.011485466 7.498231e-05
-0.024172818 0.04651983 0.08025012 -0.07184021 0.015211123 -0.10025583 0.025045399 -0.023847729
-0.019491022 -0.014399403 -0.0598513 0.057061285 -0.016789047 0.080947556 -0.046209384 0.10608129
-0.0329786 -0.085270636 0.06778987 -0.09668642 0.015022429 -0.022685135 0.10939043 0.09773828
0.09368666 -0.044331595 -0.061073996 -0.02625503 0.034085445 -0.011626657 0.021159329 0.026624935
0.051617265 -0.06860471 -0.04944861 -0.046523966 0.04258937 -0.013131536 -0.08741566 0.07141068
-0.056384236 0.035853356 0.054604694 0.019831667 0.03491478 -0.045742497 -0.054735076 0.028240515
0.04143368 -0.0700593 0.08987863 0.0054941284 -0.08431299 -0.0013319004 -0.113230005 -0.053579073
-0.019322013 -0.005889736 -0.023896012 0.01858918 0.037405964 0.043461163 0.017618062 -0.018545238
0.049696904 -0.06638401 -0.12508813 -0.05956274 -0.011053148 0.046934865 0.00631387 -0.061233193
-0.059907105 0.13290554 -0.055261005 0.029264096 0.08304306 -0.058818992 -0.028289486 -0.059510317
0.037264746 -0.036061082 0.012838702 0.005683501 0.11266952 0.051664196 0.04927345 0.050238993
-0.0057901037 0.11047771 0.027936548 0.03006229 -0.08877565 -0.07349519 0.0633475 0.015089639
-0.09410861 0.10400641 -0.060117036 -0.040871736 -0.06840251 -0.016617713 -0.08803029 0.0056954348
-0.017915925 -0.06865402 -0.00072392455 -0.106622286 -0.037574876 0.08681699 0.004527847 0.0018031058
0.13887249 -0.149369 -0.06645156 -0.01788575 -0.04255969 0.012008063 -0.06453518 0.07950156
0.027049646 -0.07200606 0.08545777 -0.0014990965 0.029027762 0.0061896006 0.030899256 0.091274336
0.06731557 0.08667221 -0.030377895 -0.08266525 -0.013752344 -0.06232221 0.051105823 -0.0458609
-0.1500612 0.041619115 -0.06862434 0.073185034 -0.12518255 -0.002581099 -0.039798792 0.12793748
-0.009072582 -0.046913717 0.10633282 -0.045397732 -0.06350188 0.051570036 0.029154424 0.11210416
0.04476603 0.010292627 0.019123504 -0.041290425 0.09297844 0.061053384 0.09833561 -0.10134439
-0.06613396 0.104505315 0.047835726 -0.09196476 -0.0068120053 -0.0062524923 -0.0040431875 0.06685084
0.01145452 0.11523744 0.06743385 -0.046706468 -0.01947437 0.042755485 0.10331447 0.077861555
00000000: 9222 8abd a573 9d3c 7b79 2ebd ead1 2c3d
00000010: 0971 81bd dd19 343a 1418 d6bd 67e0 3e3d
00000020: a413 9cbd 7030 063d c426 0a3d f30a ec3c
00000030: 17cd bdbc 3a5c 173d d65d 21bd 9dc6 1c3d
00000040: 8835 a43d 6ac2 aa3d 6bb9 6d3c 6638 95bc
00000050: 5474 a8bd d3ad 86bd 7271 b23c fbb1 983d
00000060: 2ce7 c23c 6c51 6c3d 8505 f93b 00a4 13bc
00000070: badd 7b3c b5dc 01be ebb3 443b dc90 873d
00000080: 54c3 6b3d 0fb9 f7bd 9566 063c 88a4 cabd
00000090: 0216 063d 9f82 d83d d879 da3d 4d3b 5b3d
000000a0: cd01 703d 910d c9bc 7822 bd3c f15e 933d
000000b0: 8cb6 443d 1d9a fcbd ff53 f73c b2b1 70bd
000000c0: 9a0d b0bd 9a09 973d f3cc 09bd 815c 2cbd
000000d0: 93a6 0ebd c96d 823d b087 f7bc 91b2 f83d
000000e0: 79be 25bd 0d2d 443d 9363 ccbd 7211 9bbc
000000f0: a2e5 0b3c 21ed e03c e9e4 a93c 2ce2 a93c
00000100: 2227 f43a 8759 573d a060 cc3d 49c5 b9bd
00000110: 4969 71ba 413b 623c 07a7 ef3b 8294 9d3d
00000120: 002c ab3c 04e2 933d bb81 c3bc 27c0 64ba
00000130: 50de 9f3c 9986 ea3c 892d 3cbc d23f 9d38
00000140: 1306 c6bc 948b 3e3d 2d5a a43d f620 93bd
00000150: 1338 793c ee52 cdbd 022c cd3c 505c c3bc
00000160: a3ab 9fbc 79eb 6bbc a326 75bd 18b9 693d
00000170: 2f89 89bc d5c7 a53d 0d46 3dbd 2641 d93d
00000180: 9214 07bd 5fa2 aebd 6ad5 8a3d 8803 c6bd
00000190: a220 763c 2dd6 b9bc 1708 e03d 022b c83d
000001a0: cbde bf3d 0c95 35bd ba28 7abd ca14 d7bc
000001b0: 2e9d 0b3d bc7d 3ebc 5456 ad3c 891c da3c
000001c0: a06c 533d a080 8cbd a08a 4abd ea8f 3ebd
000001d0: 3172 2e3d a725 57bc fb06 b3bd c33f 923d
000001e0: 28f3 66bd f8da 123d 2ca9 5f3d 0576 a23c
000001f0: cd02 0f3d 7c5c 3bbd e331 60bd a758 e73c
00000200: 5db6 293d 407b 8fbd 4a12 b83d 1708 b43b
00000210: 4aac acbd 2993 aeba 22e5 e7bd bb75 5bbd
00000220: 3349 9ebc b0fe c0bb 92c1 c3bc 5648 983c
00000230: ff36 193d 5504 323d c153 903c 2fec 97bc
00000240: fb8e 4b3d 57f4 87bd 1a17 00be 0ff8 73bd
00000250: 4318 35bc c63e 403d 95e4 ce3b a8cf 7abd
00000260: 2761 75bd 6418 083e 5d59 62bd 42bb ef3c
00000270: 7b12 aa3d 2fec 70bd 5abf e7bc 17c1 73bd
00000280: eba2 183d c9b4 13bd 6b59 523c a93c ba3b
00000290: 47bf e63d d69d 533d f5d2 493d 67c7 4d3d
000002a0: e9ba bdbb 2342 e23d 30db e43c 3145 f63c
000002b0: 02d0 b5bd a584 96bd 56bc 813d 893a 773c
000002c0: 04bc c0bd 5001 d53d 483d 76bd 1f69 27bd
000002d0: 9d16 8cbd df21 88bc 3a49 b4bd c5a0 ba3b
000002e0: 6bc4 92bc 7b9a 8cbd c1c5 3dba c95c dabd
000002f0: 1de8 19bd 1bcd b13d 555e 943b 3156 ec3a
00000300: 9734 0e3e 30f4 18be c117 88bd 2385 92bc
00000310: 1253 2ebd 77bd 443c 052b 84bd b7d1 a23d
00000320: 3897 dd3c ea77 93bd 7c04 af3d 557d c4ba
00000330: a1cb ed3c 22d2 ca3b 7020 fd3c 0aee ba3d
00000340: bfdc 893d 3381 b13d 10db f8bc 664c a9bd
00000350: 8351 61bc 9345 7fbd 5754 513d a4d8 3bbd
00000360: a5a9 19be ce78 2a3d eb8a 8cbd 09e2 953d
00000370: db2f 00be a827 29bb 0f04 23bd 0b02 033e
00000380: 2ba5 14bc 9928 40bd 06c5 d93d f9f2 39bd
00000390: 460d 82bd 1a3b 533d 42d5 ee3c de96 e53d
000003a0: 965c 373d 68a2 283c e5a8 9c3c 2620 29bd
000003b0: 7b6b be3d 1d13 7a3d 2e64 c93d a68d cfbd
000003c0: 3e71 87bd e206 d63d 65ef 433d 0558 bcbd
000003d0: 3e37 dfbb b5e1 ccbb b77c 84bb 18e9 883d
000003e0: bdab 3b3c 9b01 ec3d c21a 8a3d 484f 3fbd
000003f0: b788 9fbc 6020 2f3d 8996 d33d e175 9f3d

aggregator.fc_out.bias f4 [128]
-0.020854533 0.05574128 0.025963599 -0.057994183 -0.048685823 -0.072069 0.017276334 0.057597954
0.032009143 -0.025737321 -0.029867418 -0.026710428 -0.066557325 -0.03127743 -0.07390186 0.05715956
0.046968736 0.012175379 -0.075459436 0.04706095 -0.07232631 -0.05162511 0.05923344 0.05775314
0.024235476 -0.009867388 -0.106347084 -0.039497904 0.013627453 0.026844993 0.029140454 -0.028334474
-0.0041266163 -0.104367 0.059138067 0.0048027844 -0.03168152 -0.026891917 0.045545816 0.05755576
-0.061217345 0.0134311 -0.030065259 0.04876302 0.06712306 0.033219848 -0.060808692 0.028051918
-0.032911073 0.03291319 -0.05117353 -0.06828796 -0.069392666 -0.09373253 0.08695957 -0.06725378
-0.04590084 -0.099532396 -0.07472572 -0.09362716 -0.04720057 0.09285126 -0.04694107 0.07151036
-0.079924144 0.07851568 0.04857984 0.082927614 -0.07771061 -0.07818777 0.05511814 -0.09822362
0.04493999 -0.014198268 -0.003522637 -0.05420726 -0.029024076 0.05351251 -0.02663043 -0.090731665
-0.103542686 -0.06506931 -0.033075273 0.076021634 -0.08231002 0.03429059 0.08838176 0.014616189
-0.041530706 -0.0017670695 -0.054833405 0.110354036 -0.004235556 0.036595367 -0.094330706 -0.016554711
0.036645237 -0.091722965 0.02650693 -0.06791024 -0.028036812 -0.022540506 0.061462026 -0.036046
-0.011426137 -0.046954155 0.10302902 -0.02907717 0.035873715 0.01321571 0.082036555 0.012242641
0.043207265 0.026970359 -0.07063319 0.045618508 0.0034633465 0.0794198 -0.10925094 0.04487021
-0.054013964 -0.005585029 -0.05751559 0.075111546 -0.048294447 -0.03147548 -0.049712915 0.02187038
00000000: 20d7 aabc f850 643d 9db1 d43c 4f8b 6dbd
00000010: c96a 47bd e998 93bd 1987 8d3c d5eb 6b3d
00000020: 051c 033d 13d7 d2bc 84ac f4bc d4cf dabc
00000030: 354f 88bd c31c 00bd dc59 97bd 2520 6a3d
00000040: 4a62 403d 3e7b 473c 7a8a 9abd fcc2 403d
00000050: d11f 94bd da74 53bd c39e 723d 8e8e 6c3d
00000060: 7a89 c63c d3aa 21bc 80cc d9bd 8ec8 21bd
00000070: ae45 5f3c 08ea db3c f6b7 ee3c b31d e8bc
00000080: 9138 87bb 5ebe d5bd c23a 723d ad60 9d3b
00000090: 7bc4 01bd 704c dcbc 408e 3a3d 97bf 6b3d
000000a0: 0abf 7abd 1e0e 5c3c 6b4b f6bc bcbb 473d
000000b0: d177 893d 8911 083d 8912 79bd 23cd e53c
000000c0: c3cd 06bd fbcf 063d 569b 51bd 8fda 8bbd
000000d0: be1d 8ebd d7f6 bfbd dc17 b23d 5abc 89bd
000000e0: 8502 3cbd a4d7 cbbd cc09 99bd 99bf bfbd
000000f0: 6355 41bd cd28 be3d 4845 40bd 0674 923d
00000100: 45af a3bd d4cc a03d a8fb 463d f4d5 a93d
00000110: be26 9fbd e920 a0bd 8fc3 613d 7729 c9bd
00000120: ff12 383d da9f 68bc 0bdc 66bb 6f08 5ebd
00000130: e6c3 edbc ef2f 5b3d 0f28 dabc 86d1 b9bd
00000140: 300e d4bd 0f43 85bd f079 07bd 3bb1 9b3d
00000150: 2892 a8bd 4a74 0c3d 7f01 b53d bd78 6f3c
00000160: 1a1c 2abd 039d e7ba fe98 60bd 4c01 e23d
00000170: 6bca 8abb 06e5 153d 7530 c1bd bf9d 87bc
00000180: 5119 163d 40d9 bbbd 1025 d93c 8614 8bbd
00000190: 75ad e5bc dea6 b8bc 9bbf 7b3d f8a4 13bd
000001a0: b134 3bbc 0053 40bd e100 d33d 3f33 eebc
000001b0: 51f0 123d b586 583c c802 a83d 5c95 483c
000001c0: 1afa 303d f1f0 dc3c 22a8 90bd 79da 3a3d
000001d0: 50f9 623b d9a6 a23d f5be dfbd d3c9 373d
000001e0: bf3d 5dbd 9e02 b7bb 7895 6bbd 15d4 993d
000001f0: 66d0 45bd 6fec 00bd c59f 4bbd 8329 b33c

aggregator.att_fc.weight f4 [1, 128]
-0.054618746 -0.009460481 0.041666787 -0.018153876 -0.089472204 0.0027958967 -0.007378203 0.03169245
-0.03954079 0.07795596 -0.013971131 0.038114034 -0.025995996 -0.00090747955 0.13435039 -0.032356717
0.0056388266 0.1349308 0.0501179 -0.047044862 -0.0033276542 -0.022408642 -0.062705435 -0.02772919
-0.023266792 0.006495679 -0.043161534 0.027838707 -0.040828135 0.051947504 0.016910238 -0.075715266
-0.0010525339 -0.0558573 -0.031139076 0.07250212 0.014500926 -0.062908314 0.0726851 0.0029439935
-0.101951264 0.016190665 -0.048967242 -0.026475437 -0.016238596 -0.055584464 0.06689277 -0.05041728
0.031739067 -0.034862638 0.033314187 -0.03224975 0.040625397 0.053208865 -0.039610375 -0.005622159
0.016529337 0.047428004 0.010764215 0.03215739 -0.03232116 -0.053139966 -0.034009527 -0.08433301
-0.056005597 -0.048262514 0.08860481 -0.03211418 -0.041908763 0.023228379 -0.09005569 -0.0056806807
-0.020267386 -0.0123767555 0.0014198798 0.055576425 -0.06942317 -0.050090708 0.021260383 -0.025927972
0.058626126 0.080717765 -0.026370494 -0.07586769 0.044416767 -0.03438578 -0.03769632 -0.01932045
-0.018382257 -0.049321394 -0.029278839 0.024795381 -0.004542345 -0.023810754 0.07925863 -0.010746057
-0.06267519 -0.055144858 0.032200735 -0.038821526 0.008778033 0.010134172 0.038902476 0.06480163
-0.0547297 0.021323964 -0.07401089 -0.022220572 -0.056396846 -0.034664083 -0.018384025 -0.022578545
-0.080650724 0.02561841 0.0016632719 0.048593268 0.07314414 -0.046952315 -0.041660137 0.013337946
0.026165603 0.030250669 0.024694629 0.0013773323 -0.03540228 -0.03778691 -0.06439281 0.010758947
00000000: e8b7 5fbd 2200 1bbc cbaa 2a3d 70b7 94bc
00000010: 343d b7bd 5d3b 373b dac4 f1bb f1cf 013d
00000020: 86f5 21bd 60a7 9f3d 2ce7 64bc 761d 1c3d
00000030: 8ef5 d4bc ece3 6dba 2693 093e 7a88 04bd
00000040: e8c5 b83b 4d2b 0a3e 6d48 4d3d 1db2 40bd
00000050: c614 5abb 5492 b7bc b56b 80bd 5428 e3bc
00000060: 009a bebc b4d9 d43b 26ca 30bd 000e e43c
00000070: 673b 27bd e8c6 543d 5787 8a3c 9b10 9bbd
00000080: 2df5 89ba a0ca 64bd 6017 ffbc fe7b 943d
00000090: 4b95 6d3c 13d6 80bd eddb 943d 04f0 403b
000000a0: d3cb d0bd 49a2 843c e091 48bd 04e3 d8bc
000000b0: ce06 85bc 89ac 63bd 14ff 883d 5a82 4ebd
000000c0: d300 023d 20cc 0ebd 7574 083d 5018 04bd
000000d0: d166 263d 8af1 593d 7d3e 22bd 173a b8bb
000000e0: 8868 873c de43 423d 645c 303c 78b7 033d
000000f0: 3163 04bd 4ba9 59bd 934d 0bbd c9b6 acbd
00000100: 2066 65bd eaae 45bd 7076 b53d 298a 03bd
00000110: 86a8 2bbd 7149 be3c 1e6f b8bd 0125 babb
00000120: ca07 a6bc e0c7 4abc 431b ba3a 1ba4 633d
00000130: bc2d 8ebd ea2b 4dbd 412a ae3c e666 d4bc
00000140: f321 703d 5b4f a53d ef06 d8bc 8560 9bbd
00000150: 5bee 353d 1bd8 0cbd 7567 1abd ec45 9ebc
00000160: 6396 96bc 3b05 4abd 2dda efbc af1f cb3c
00000170: f4d7 94bb c50e c3bc 5952 a23d 3b10 30bc
00000180: da5b 80bd 93df 61bd ebe4 033d 5203 1fbd
00000190: bdd1 0f3c cc09 263c 3458 1f3d b8b6 843d
000001a0: 402c 60bd 98af ae3c 0693 97bd eb07 b6bc
000001b0: 6100 67bd edfb 0dbd 189a 96bc a4f6 b8bc
000001c0: 352c a5bd b3dd d13c 2502 da3a bc09 473d
000001d0: 98cc 953d 1251 40bd d2a3 2abd 6687 5a3c
000001e0: 3f59 d63c 40d0 f73c 644c ca3c 9a87 b43a
000001f0: fb01 11bd 72c6 1abd 61e0 83bd 4b46 303c
